pyopencl/GestureAccelNet1.pth (torch, 12751 bytes, 8 tensors)

features.0.weight f4 [32, 48]
00000000: 6136 c03d 2853 01be fa0f 493d 8ea6 b0bc
00000010: 8491 2fbe 35ea 0cbe 7d7d 043e b290 f3bc
00000020: acd3 63bd dce6 7ebd 4b56 31be 484d 9cbc
00000030: 1c0a 533d d137 22be c449 93bd 0828 b9bc
00000040: d53e 80bd e7be ef3c e5f2 aa3d f2ec debc
00000050: 5c62 b03c e783 84bd c84c f53c 057e e2bc
00000060: fec1 023e 2de1 38bd 6c9d 873d cc88 05be
00000070: 4fdd 69bd 548c 21bc 012a 073e 0570 af3c
00000080: cbe4 49bd d62e 0f3e 985d 21bc d8ec 2abe
00000090: e91d a73c f7f0 40be 49fd 2dbe 88f9 ee3b
000000a0: 041c 03bc bcf6 32bd 79b5 92bd be7d 5e3d
000000b0: 6ca2 513d b1c5 323d 731c 48be 9d5c 30bd
000000c0: 9790 1d3c 6719 013e 32b2 2dbc 8192 043d
000000d0: 48ef 8a3d d6a7 383a 4665 08be c0f2 f0bd
000000e0: 0208 0b3d 0b66 053e 7cef f839 82a2 e03c
000000f0: fe26 8d3d 62b6 a2bd 32d1 1cbd 6c92 6e3d
00000100: 8adc cdbd 516b 0fbe d577 043e 9867 7b3d
00000110: f514 033e f8c9 1cbd 7906 e93d ac34 483d
00000120: f58b c5bd ab22 7cbd bf89 e0bd fb8a 6dbd
00000130: df9f 0ebe f1bc 183d 81fa 0bbe b632 75bd
00000140: 654a a93d d6b6 47bc 799a 3ebd e636 133d
00000150: d49c 28bd 269d 61bc 5ba0 ebbd 97ad 93bd
00000160: 7e71 89bd 1885 ebbd 3c5e bdbd ee8f a2bc
00000170: 951b 63bd 7f82 633b 112b 183d 9a2a b0bb
00000180: 2e59 0e3e f213 eebd 7636 e5bd 00a8 d2b8
00000190: fcaa 34bd 5058 22bc 5e4d ccbd 061a 57bd
000001a0: e471 853d 7075 9abd e6b6 03be 309b 6bbd
000001b0: 5854 e9bd 5c0f c53d bfc5 b6bd 3ece bfbd
000001c0: ecfa 9c3d 006d 5ebb f2bd a1bd e842 0a3d
000001d0: 1ec3 97bd f846 d23d 91eb c7bd 88c9 e3bd
000001e0: 60b9 b2bb 7c4a fc3d 08c1 ef3d e0a3 783c
000001f0: 0014 5ab9 c047 98bc 27ed a1bd 30e9 a23c
00000200: a40f a73d 021c 96bd 2a0c ecbd b408 09be
00000210: 80fe daba 089f 56bd c61d dfbd 10cb ffbc
00000220: 3092 80bd c886 e33d b6c3 973d 3244 ddbd
00000230: 3cae 333d 6c67 d83d 4d67 97bd c02a 1f3d
00000240: bbff aabd 863f 563d e365 96bd b91e febd
00000250: a6e1 17be 986a 043e 4287 bd3d e694 d3bb
00000260: 7429 a7bc ebf1 09bd 9eae a33d 4b51 923d
00000270: abb7 25bd f8dd 9f3d 31f5 22bd 06ad fc3d
00000280: 16ca 853d 2464 fabd e3da 98bd 573a f7bd
00000290: a2e8 ac3d 9375 aebd 44db 853d 6271 e0bd
000002a0: 9034 b0bd c455 143c 2d5a e3bd ff1a f8bd
000002b0: 8c20 223d c9f7 f9bd 388f 023e ea43 a33c
000002c0: a1ad 3f3d ec91 db3d db95 6f3c c981 e2bd
000002d0: 8494 bbbd de98 9c3b 10ca fe3c 0dc6 e6bd
000002e0: 39ad 0fbd d109 413d 59c9 283d 05e7 b4bd
000002f0: 5717 d5bd d594 dc3d a0d9 7c3d 8f10 133d
00000300: 0073 d6ba 9e32 bfbd 5550 f0bd 6427 d0bd
00000310: 0e7c cd3d 30bd 943c 288d a1bc 1885 85bc
00000320: 4122 06be 48a9 f43d 15cc aebd 5cfe 47bd
00000330: 029d 03be 38df db3d 505c efbc cc2b 0e3e
00000340: e8d3 643d 1937 d3bd 90b4 333c 7091 863c
00000350: 7870 d8bd 4601 72bd 3dd8 b6bd 7642 ba3d
00000360: 6cf7 2b3d c350 c5bd 5e51 91bd 7553 02be
00000370: 5e28 853d 4a03 9a3d 40dd 28bc 88bd e8bc
00000380: 2c4f c63d 54ba 4e3d 10a3 4a3d 2eea ca3d
00000390: 6051 133c 00af ec3c 5e3a 8dbd e00d 8abd
000003a0: eec5 89bd 48f7 eb3d 406a 163c 989c e2bc
000003b0: ecd2 d7bd 4026 cabd 0478 13bd 7261 823d
000003c0: 57bb bfbc ab36 993d 4f9c d0bd ae3b 3f3d
000003d0: 7a45 edbd 7368 28bd 238c 0bbe 63d6 e03b
000003e0: 6c61 d43c 4230 0bbe d532 77bd d6c0 cdbd
000003f0: 49fa ccbd 87be 1abb 3d4c 233d 3b4d 993d
0.09385372 -0.12629378 0.049087502 -0.021563794 -0.17145354 -0.13761218 0.12938495 -0.029732082
-0.055621788 -0.062231883 -0.17318074 -0.01907982 0.051523313 -0.15841605 -0.07191804 -0.022602096
-0.06261984 0.029265834 0.0834711 -0.027212594 0.021531276 -0.06470471 0.029943839 -0.027647981
0.12769315 -0.04513662 0.06621823 -0.13040465 -0.057095822 -0.009860117 0.13199617 0.02141572
-0.04929046 0.1398271 -0.009848975 -0.16691911 0.020400004 -0.18841921 -0.16991152 0.00729293
-0.008002285 -0.043692335 -0.071635194 0.054319136 0.05118029 0.043645564 -0.19542103 -0.043057073
0.009616992 0.12607346 -0.010601567 0.03236628 0.067839205 0.00070440525 -0.13319883 -0.11765051
0.033943184 0.13027208 0.00047480676 0.02742124 0.06892203 -0.07944943 -0.03828544 0.058245108
-0.1005183 -0.14005782 0.12936337 0.06137809 0.12800963 -0.03827855 0.11378188 0.048878357
-0.09645835 -0.0615565 -0.10963773 -0.05799387 -0.13928173 0.037289564 -0.13669778 -0.059862815
0.08266143 -0.012189588 -0.046534035 0.035941027 -0.041165188 -0.013770377 -0.11505195 -0.07210844
-0.067111 -0.11499995 -0.092464894 -0.019844022 -0.055446226 0.0034715233 0.037150446 -0.0053761723
0.13901207 -0.11624898 -0.11192028 -0.00010044873 -0.044108376 -0.009908751 -0.09975694 -0.052515052
0.065158635 -0.07541931 -0.12862739 -0.057521045 -0.113930404 0.0962207 -0.08924436 -0.093655095
0.07665047 -0.003393948 -0.07897557 0.033755213 -0.074102625 0.102674425 -0.097617276 -0.111224234
-0.0054542273 0.12318894 0.1170674 0.01517579 -0.0002079755 -0.0185889 -0.07906561 0.019886583
0.0815728 -0.07329561 -0.115257576 -0.13382226 -0.0016707927 -0.052397758 -0.10894351 -0.031224757
-0.06277883 0.11109692 0.07410376 -0.10804023 0.043867335 0.10566601 -0.0739275 0.03885913
-0.08349558 0.052306674 -0.07343652 -0.12408204 -0.14832172 0.12931287 0.09254314 -0.006456959
-0.020405509 -0.033677977 0.0799229 0.07144412 -0.040458363 0.07806009 -0.039784614 0.12337689
0.065326855 -0.122261316 -0.07463624 -0.12071674 0.08442809 -0.08518519 0.06535962 -0.10959126
-0.086037755 0.009053651 -0.11101184 -0.12114524 0.03958182 -0.122054644 0.12749946 0.019929845
0.046796445 0.10721192 0.014623131 -0.11059911 -0.091591865 0.0047789654 0.03110221 -0.11268244
-0.035077307 0.047128502 0.041207645 -0.08833126 -0.10404842 0.10770575 0.06173098 0.035904463
-0.0016361177 -0.09335826 -0.11734072 -0.10163763 0.10033427 0.018156618 -0.019720629 -0.016298816
-0.13099004 0.1194635 -0.08535019 -0.04882656 -0.12852862 0.10735935 -0.029218823 0.13883895
0.055866152 -0.103132434 0.010968342 0.016426772 -0.10568327 -0.059083246 -0.08927963 0.09094708
0.041984007 -0.09634545 -0.07095598 -0.12727149 0.0650184 0.075201586 -0.010306656 -0.028410688
0.096830696 0.050470665 0.049471915 0.099079475 0.008991569 0.02889204 -0.06895898 -0.06740928
-0.06727205 0.115217745 0.009180605 -0.02766256 -0.10538277 -0.09870577 -0.036003128 0.063662425
-0.02340476 0.0748113 -0.101860635 0.046687774 -0.11585517 -0.041115236 -0.13627677 0.0068614944
0.02592536 -0.13592628 -0.06035121 -0.10046546 -0.100086756 -0.0023612098 0.03986763 0.07485434

features.0.bias f4 [32]
00000000: bac8 af3d 3df3 54bd 1287 be3d bd99 623d
00000010: 5cf5 de3d 248e 973d 5833 933d e6ba 12bd
00000020: 2dd2 9dbd c167 6a3c 5bf7 94bd 794c 813d
00000030: 7171 a3bc 77ff 083e cac5 253d 1edd 97bd
00000040: c95b 3dbd e976 053e 22a7 a63d b3df 8e3d
00000050: 2fb8 933b d782 84bd 0e2b bebd 4b15 dbbd
00000060: 2331 1a3c 929a 90bd d4d8 e53c 28dc e2bd
00000070: 3aaa 7c3d 5be9 023e 73b7 58bd 7815 113d
0.085832074 -0.051989783 0.09303106 0.055322398 0.10886642 0.07400158 0.071875274 -0.03582277
-0.077061035 0.014306963 -0.07273742 0.06313414 -0.019951554 0.13378702 0.04047183 -0.07415222
-0.04623011 0.13033642 0.08137347 0.06976261 0.0045080404 -0.06470268 -0.09285556 -0.10697421
0.009411129 -0.07060732 0.028057493 -0.11077148 0.06168578 0.1278433 -0.052909326 0.035420865

features.2.weight f4 [20, 32]
00000000: eea8 8c3d 961a fdbd b871 7c3d 5743 0abe
00000010: 00f2 fbbb d74d 36bc 3d54 84bd b8e7 09be
00000020: 2ac6 cd3d fa32 093e aece 11be 2ae2 1b3e
00000030: 2e59 28be 0d73 ac3d 2439 d03d 285c 19be
00000040: 5910 ddbd 309a 713d bb18 443d 1556 643c
00000050: a85a 223d bb66 c7bd 96d4 af3d 4a3a 06be
00000060: 722e 03be 2347 a93d 3299 c83c 538c 04be
00000070: 51f9 edba 1dfc b23d 6924 0a3d 8056 3c3d
00000080: 3645 3f3d 9aba e3bd 182d 803d f032 853c
00000090: b2cb b33d fd93 37be 2d9a 103e 0029 4c3a
000000a0: 6378 e9bd 643e b03d e7c8 2f3e c111 0abe
000000b0: 3407 ae3d d50c 903d 83d7 5bbd bf58 debd
000000c0: a352 43be 130c 61bd 8bef 9e3d e6cb 023e
000000d0: 82cd 9cbd fcc9 40be 0012 b83c d5a5 243e
000000e0: a662 f3bc bda5 b23d 23d6 41be 24b6 293d
000000f0: 855f 013e 07e5 21be 55a0 9ebc 51ca 27be
00000100: 8d41 5a3d f4b2 373d 1c53 f6bd 4e4e 11be
00000110: b23d 2bbe db2b 9d3b 32fe 8fbd 0325 223e
00000120: a0d2 4f3d a4c1 59bc 2adf 29be 8c6c f0bc
00000130: 069a 27be 64a7 a7bd e8c4 7f3d a7fd b4bb
00000140: c771 b23b 4d37 9cbd 7407 c33c 07ce 9dbd
00000150: 7404 013e ebde 8c3d 2be2 c13d a906 0b3e
00000160: e9aa 883d 563b 4bbe fdc5 043e 02a6 1fbe
00000170: 7cd9 043e 80b8 cb3d 8d4d 91bd 224d c63d
00000180: 7ede cf3d 5625 f13d 9491 2fbd e216 f7bd
00000190: b002 1cbd 5494 17bd 23b4 f8bd 6e8a b13d
000001a0: 4ce3 593d 786e 5a3d 0ab8 b73d a52d ebbc
000001b0: 42a2 b73c 464d 063d a7be 86bd 06d5 173e
000001c0: fe32 00be b661 dfbd d11e abbd bffd 20bd
000001d0: 08ef 583d bd09 56be 8689 09bb 85f9 2f3e
000001e0: d626 d4bd 4f3e 023e 5b02 2f3e e4a6 223d
000001f0: 4345 d7bd 674d 653c d69f 44be 2f8b 143e
00000200: 8d5b 9ebd 72e6 7ebd 234b 85bd 3014 1abe
00000210: a0fc 8fbc b628 113c 7002 bbbc 26cd 9ebd
00000220: f623 833d abdb d7bd 12c3 dbbd 7ab1 99bc
00000230: 40e1 f4bd e9a4 d93c d8fe 17be 9eba 183e
00000240: 0dd6 d6bc beb0 8b3d a50d 3cbe 279e 8b3d
00000250: 100a 51be 7004 59bd 01fc cdbd 4197 20be
00000260: 7a85 9d3c 0c12 253c 9497 03be e492 08be
00000270: 1d82 0e3d e00d ff3b cd4a c7bd b9ce c7bd
00000280: ab71 d03b 0038 0739 4280 d43d 6b5d 823d
00000290: 6257 d73d 5847 91bd 3494 d9bd 86a5 86bd
000002a0: 1b03 043e 1c16 0bbe 40a3 2ebd 10ef 2c3c
000002b0: 5ebc 09be 917c 933d ec49 b2bd 5896 03be
000002c0: 62b0 6dbe f561 fe3d e2c3 ddbd e08a 3ebd
000002d0: 9ef4 56bd b1fb 2ebd cad6 5ebd 30e5 943d
000002e0: 64a3 9dbd 6dec 19be 079f 183e f885 7a3d
000002f0: fc0f 2dbe c0aa 16bc 6947 a23d 30cb 7dbc
00000300: 148d 2ebe 37ff 0fbe d210 55bd a2dc ab3c
00000310: 4f20 1e3e adb9 1c3c 0ed7 ca3d 3230 cabd
00000320: 00a5 8f3d e2bb 92bd 1bd9 fcbd 8fdd d8bd
00000330: 6e02 82bd 037b 113e 68bd 25bc f23e 1cbe
00000340: 91b8 bb3d e6c0 c6bd 61d6 4d3e d127 02bc
00000350: 51e6 22be 2a9f ab3d a134 cc3d f805 863d
00000360: 2204 f2bd 79bf a83d 033d 2c3e 39b4 313e
00000370: 4489 063d 938a 33bd 6c6c 003c 9496 83bd
00000380: 1440 eabd 086a 13be ccf1 3c3d 7ea2 84bc
00000390: 98ca 27be 27d1 cf3d 7e6c ce3d 108f c23c
000003a0: 3824 35bd 5b62 4abd 0626 a3bd 0801 16be
000003b0: 085f 9a3d c721 033e e01b cb3d daa2 553d
000003c0: 5817 8bbd def5 c03d d9b3 0a3d 42d9 7f3d
000003d0: 51ca 0ebc ab42 213e b3b8 22bd 96d8 20be
000003e0: 4f52 473c 4370 d4bc eb8d 4abe 70be 27bc
000003f0: 8689 efbd ca49 c9bd e778 a2bd 0004 233d
0.06868158 -0.123585865 0.06163189 -0.1350225 -0.0076887608 -0.011126957 -0.0646138 -0.134673
0.100475624 0.13398352 -0.14238998 0.15222993 -0.1644027 0.08420382 0.10167149 -0.14976561
-0.10794134 0.058984935 0.047875147 0.013936539 0.039637238 -0.09736391 0.085854694 -0.13108173
-0.12810686 0.082655214 0.024487112 -0.12944154 -0.0018155967 0.08739493 0.03372613 0.04598093
0.046696864 -0.11119576 0.06258601 0.01625964 0.08779086 -0.17927547 0.14121313 0.0007788092
-0.11399915 0.0860565 0.17166482 -0.13483335 0.08497468 0.070336975 -0.053672325 -0.10856771
-0.19074492 -0.054943155 0.07760533 0.12773094 -0.07656385 -0.18827051 0.02246952 0.16078885
-0.029710125 0.08723018 -0.18929343 0.04143347 0.12634094 -0.15810023 -0.019363562 -0.16385771
0.05328517 0.044848397 -0.120275706 -0.14190027 -0.16722754 0.0047964877 -0.07030906 0.15834431
0.050737977 -0.013290796 -0.16589037 -0.029348634 -0.16367349 -0.08186224 0.062443644 -0.005523402
0.005445692 -0.07627735 0.023807265 -0.07705312 0.12599355 0.06878456 0.09466966 0.1357676
0.066732235 -0.19846854 0.12966152 -0.1559067 0.12973589 0.099473 -0.0709487 0.09682681
0.10149859 0.117746994 -0.042863443 -0.120649114 -0.0380885 -0.03700669 -0.12143733 0.086689815
0.053195283 0.053328007 0.089706495 -0.028708288 0.022416238 0.032788537 -0.06579333 0.14827356
-0.12519452 -0.10907309 -0.08355487 -0.03930449 0.052962333 -0.20902152 -0.0020986511 0.17185028
-0.1035897 0.12719081 0.17090742 0.03970994 -0.105112575 0.013995505 -0.19201598 0.1450622
-0.07732306 -0.06223149 -0.06508472 -0.15046763 -0.017576516 0.008859804 -0.02282831 -0.07753973
0.064033434 -0.10539945 -0.10730566 -0.018761385 -0.119570255 0.026567893 -0.14843309 0.14914939
-0.026225114 0.0682082 -0.1836458 0.068172745 -0.20413995 -0.052982748 -0.100578316 -0.15682699
0.019228686 0.0100751035 -0.12850791 -0.13337284 0.034792054 0.0077836365 -0.09731064 -0.09756226
0.0063612065 0.00012895465 0.10376026 0.06365474 0.10514714 -0.07093686 -0.10623971 -0.0657454
0.1289181 -0.13582653 -0.042636156 0.010555044 -0.13450763 0.072014935 -0.08705506 -0.1285032
-0.23211816 0.124210276 -0.10828377 -0.04651916 -0.05247938 -0.0427205 -0.054404058 0.072702765
-0.0769718 -0.15031596 0.14904414 0.06116292 -0.16900629 -0.009195983 0.07923777 -0.015490338
-0.17046005 -0.140622 -0.052017994 0.02097923 0.15442012 0.009565753 0.099043 -0.09872474
0.07013893 -0.07164742 -0.12346097 -0.10589134 -0.0634812 0.14207081 -0.010115959 -0.15258387
0.091660626 -0.09704761 0.2010131 -0.007944063 -0.15908171 0.083799675 0.09970976 0.06544107
-0.118171945 0.082396455 0.16820149 0.17353906 0.03284575 -0.043833327 0.00783835 -0.06425205
-0.11438003 -0.14395916 0.046129033 -0.016190764 -0.16385877 0.101473145 0.10079287 0.023749858
-0.044223994 -0.049410205 -0.07966237 -0.14648831 0.07537657 0.12805854 0.09917426 0.05215726
-0.06791562 0.094218954 0.033862922 0.062463053 -0.008715228 0.15748088 -0.039726924 -0.15707621
0.01216562 -0.025932437 -0.197807 -0.010238275 -0.116961524 -0.09828527 -0.079332165 0.039798737

features.2.bias f4 [20]
00000000: be20 343e 7b35 1a3e 93aa ff3d 1760 f73c
00000010: e67b 1ebe 56c0 11bd ac29 02be aab7 0e3e
00000020: db41 1ebe 3b81 e4bd ed2e 37bd a6a6 0dbe
00000030: 812e cb3c 5c4d 2e3e 69ac c63d 1ee8 8fbc
00000040: ab7c 243e 06c3 4abd d42f c73c 97db 19be
0.17590615 0.15059464 0.12483706 0.030197186 -0.15476951 -0.035583816 -0.12711209 0.1393725
-0.1545481 -0.11157461 -0.044722486 -0.13833103 0.024802448 0.17021698 0.097008534 -0.017566737
0.16063182 -0.049502395 0.024314798 -0.15025173

features.4.weight f4 [13, 20]
00000000: 2696 4f3d 281a ddbc accf 58be 13d4 23bd
00000010: 10bb 483e 9499 563e c90b 1f3e 007f 923b
00000020: ece2 02be 39a9 c8bd 2005 5cbe 32e3 07be
00000030: 40e0 a03d ba8e 2a3d c8d3 0c3d 12fa 313e
00000040: b99f 4b3e 8b2e d3bd 6607 083e b6ef 09be
00000050: aec2 ff3c 735f f73d 1946 483e c66a e43c
00000060: a377 2fbe ae41 3b3e 1e2c 02be 3017 643d
00000070: fcd5 2ebe abb5 ffbd 743d 23be 6595 debd
00000080: ba8c 1ebe 000f 13be 064b 343e 31ac a23e
00000090: 6df1 e13d 32b3 20bc 1899 f9bd 71a8 3abe
000000a0: 1f19 78bd 394e 9a3d 24a1 b53c 0f8c c13c
000000b0: 24d3 9a3d b4b5 c83d 7c22 5c3e c61e cd3d
000000c0: 1e23 363e 071c b03d 901f ec3d 0d73 0b3e
000000d0: b9e2 a3bd 7514 263e 2b29 2a3d ce31 6bbe
000000e0: 1dab 363e bd88 e1be a0cd 2d3d bb16 ef3d
000000f0: b18d 933d ffc7 75be 16c4 843c 6784 1e3e
00000100: ba26 14bd e0ed d0bd 5d17 21be 437a a13d
00000110: 1802 d63c 8c35 4dbe a616 0f3e a2a7 44be
00000120: f0ad 49be 86c7 183e 4ad8 0c3c 5d41 d63d
00000130: 5ef5 cf3d 7ce5 81be d830 92bd 8836 34be
00000140: 269c 1bbe f9f6 30be d647 3cbd a924 b73d
00000150: 8c3a 0fbe 6570 14be 9fb7 0ebe f948 3e3e
00000160: d0db 153e f069 e4bd 5a54 303e 6c9f d3bd
00000170: 84bc eebc a08d abbd 6bb8 303d 86e4 733e
00000180: e9fe 45bd ae94 b03d d0ed a4bc 0695 26bc
00000190: 7890 053e f8dd c8bd 76f8 ae3d 2603 963d
000001a0: b317 e9bd 9cf6 e6bd 5eb1 10bd c3a8 953d
000001b0: b357 983c 261a 12bd 8bf1 6e3d 87d0 e03d
000001c0: 9cbc 83be 5c65 503d a569 973d 2cc0 a43c
000001d0: 4751 63be 3880 eabc beda 62bd 6df8 61be
000001e0: d072 30bc 1c7a 07bd 001d 83bd c06d fabc
000001f0: e0b9 d83d 70a7 fb3c fae1 f8bd 30ea f8bc
00000200: c2d7 babd a7e3 02be 4409 d23d e1d7 28be
00000210: 308b 4d3d c866 543d 087d f63d 8c54 9cbd
00000220: 102f 853d 00fd f6ba 9499 f83d 2769 06be
00000230: 6165 ff3b cd43 b73d ea45 06be 89be b8bd
00000240: fa25 893b ddbd bebd 29e4 f73d 9da5 cd3c
00000250: f92a 26be d474 0fbc 8034 29be 8a55 4abd
00000260: caf3 87bb 15b8 4a3e 2272 26bd c83f 35bd
00000270: 82d7 9ebd 2f85 773d e7a3 edbd bd42 2cbd
00000280: 81d6 4f3e afcd 0fbe 11de 68be 1cf3 5bbe
00000290: dcb5 df3d 9021 c6bd 8ef5 b1bc 8100 5dbe
000002a0: 1686 1abd de9f f13d 7cf6 503e 0ce3 abbd
000002b0: 8957 193e a77e 533e 1823 883d 07f2 f1bd
000002c0: 7eb6 53be b604 47bd 95a8 013e 004c b3bb
000002d0: ef24 6dbd 8bb6 a33d ee19 52bd 5ad7 67be
000002e0: 082b 143e 130b 0bbe 804d 8cbb 8d80 283e
000002f0: ec28 69bd f23a 4ebe cdf7 123e a1ad 42be
00000300: fd42 353e e058 673c f449 513e 006a 0cbe
00000310: 647d ae3d 089a 9cbd 6428 62bd e1ec 5b3e
00000320: 87b6 67be bbcc 5b3e 85c9 e5bc 9724 48be
00000330: b01b 4cbe 0b40 cbbc 34fb 56be 81f4 e63d
00000340: d19a f13d fec3 ecbd ed87 18be 937f 163e
00000350: a74d da3d 7209 253e 3cfa d9bc 73d1 163a
00000360: 2cee 4bbe f9b9 233e 9ce5 5d3e e85b 193d
00000370: 700d 19bd cab7 41be d4b4 3fbe 80a3 06be
00000380: d4f9 acbd 00b1 e23a 00e8 713c 742c 0d3e
00000390: f095 6e3d f072 32be 3249 003e 0061 0fbd
000003a0: ea20 aabd 9819 633e 592d 04be 8809 0cbe
000003b0: 0a6b 1bbe 0605 46be 36ec 523e 3a22 2bbe
000003c0: 81a0 583e 397f 283e 85be 20be 935c 5c3e
000003d0: 0f49 de3d dd67 5b3d f3d5 51be 1f2e 71be
000003e0: 9a83 2fbb 1f5a 293e 74d3 31be 3546 a83c
000003f0: 5e8d 053e 6ac2 fdbd 4c6c 53be c9fc 06be
0.050680302 -0.026990011 -0.2117297 -0.03999717 0.19602609 0.20957023 0.1553184 0.004470706
-0.12781876 -0.09797902 -0.2148633 -0.13270262 0.07855272 0.04164002 0.034381658 0.1738055
0.19885148 -0.10311612 0.13284072 -0.13470349 0.03122076 0.12078752 0.1955799 0.027882945
-0.17135482 0.18286774 -0.12712142 0.055686176 -0.17073816 -0.12485822 -0.15941411 -0.108683385
-0.1548337 -0.14361191 0.17606744 0.31771997 0.110323764 -0.0098083485 -0.121874034 -0.18228318
-0.060570832 0.07534451 0.022171564 0.023626355 0.07559803 0.09800282 0.2149753 0.10015635
0.17786834 0.08599096 0.115294576 0.13618107 -0.08002228 0.16218741 0.041543167 -0.22968218
0.17838712 -0.44049636 0.042432427 0.11674257 0.0720476 -0.24002074 0.016206782 0.15480195
-0.036169745 -0.10201621 -0.15731569 0.07884648 0.026124045 -0.20039958 0.13973483 -0.19204572
-0.19695258 0.14919862 0.008596489 0.10461686 0.10154222 -0.25370395 -0.071382225 -0.17598927
-0.15196285 -0.17281713 -0.045966946 0.08942539 -0.13987178 -0.14496 -0.13937233 0.18582524
0.14634633 -0.111530185 0.17219678 -0.10333142 -0.029142626 -0.08376622 0.043144625 0.23817644
-0.048338804 0.086221084 -0.02013293 -0.010167366 0.13043392 -0.09807962 0.08543484 0.07324819
-0.113814734 -0.11277506 -0.0353254 0.07307579 0.018596506 -0.03566947 0.058335822 0.109772734
-0.25729835 0.050877914 0.07393197 0.020111166 -0.22198974 -0.028625593 -0.05538439 -0.22067423
-0.010769561 -0.033075437 -0.06402016 -0.030569911 0.10582328 0.030719489 -0.121524766 -0.030385107
-0.09123184 -0.12782155 0.102556735 -0.16488601 0.050181568 0.051855832 0.120355666 -0.076333135
0.06503117 -0.001884371 0.12138668 -0.1312605 0.0077940677 0.08948479 -0.13112608 -0.09020717
0.0041854354 -0.09313557 0.12104065 0.025103385 -0.1622733 -0.008755881 -0.16523933 -0.049397983
-0.004148935 0.19796784 -0.04063619 -0.04425028 -0.077559486 0.06042975 -0.116035275 -0.042055834
0.2029667 -0.14043306 -0.22740962 -0.21479458 0.10923359 -0.0967437 -0.021723535 -0.21582223
-0.03772553 0.1179807 0.20406526 -0.08392915 0.14974798 0.20653783 0.066473186 -0.11813741
-0.20675084 -0.048588477 0.12661965 -0.0054717064 -0.05789655 0.07993802 -0.05129426 -0.22640744
0.1446954 -0.13578443 -0.0042816997 0.16455288 -0.05692379 -0.20139673 0.14352341 -0.19011547
0.17701335 0.014120311 0.20438367 -0.13712311 0.0852001 -0.07646567 -0.0552143 0.21477081
-0.22628222 0.21464817 -0.028050194 -0.19545208 -0.19932437 -0.024810812 -0.20994264 0.11277104
0.11797107 -0.1156082 -0.14895602 0.14697103 0.10659342 0.16116884 -0.026608579 0.0005753256
-0.19915074 0.15988912 0.2166962 0.037441164 -0.03736633 -0.18917766 -0.18721324 -0.13148308
-0.084460884 0.0017295182 0.014764786 0.13786489 0.05824846 -0.17426658 0.12527922 -0.035004616
-0.08307059 0.22177732 -0.12907924 -0.13675511 -0.15177551 -0.19337854 0.2059792 -0.16712275
0.21154977 0.16454782 -0.15697677 0.2151969 0.108537786 0.05356585 -0.20491771 -0.2355275
-0.0026781322 0.16538285 -0.17365819 0.02054129 0.13042209 -0.12390597 -0.2064678 -0.13182367

features.4.bias f4 [13]
00000000: 37ee c73c d8b5 29be adec 1ebe fa21 47be
00000010: 158b 9cbd dc5e c2bb dd2d 00be cdca 58be
00000020: 7886 bbbd 1f3f 353e de14 b23d b2e1 483e
00000030: 3034 433d
0.024405582 -0.16573274 -0.15519972 -0.19446555 -0.07643715 -0.0059317183 -0.12517495 -0.21171112
-0.09156507 0.1769986 0.08695386 0.19617346 0.04765719

classifier.1.weight f4 [2, 13]
00000000: 58cb 8cbc 1803 bbbb feef 82be cd77 453d
00000010: 8fae b43d e472 f7bd 8002 46be fadb 01bd
00000020: c19a 22be 2096 653e 270f 1dbe d4e6 513e
00000030: 8f34 563d eb0d 85be 7a67 b6be 45d5 833d
00000040: b000 563e ccd4 f2bd 4701 3e3d ca93 3e3e
00000050: 8f8e 38be 6811 253e 5c56 a7bd 11c8 27be
00000060: 1f98 09be 3311 c63e
-0.017186806 -0.005707156 -0.25573725 0.048209954 0.08822357 -0.120824605 -0.19336891 -0.031703927
-0.15879346 0.2242055 -0.15337811 0.2049821 0.052296218 -0.2598718 -0.3562582 0.06437162
0.208987 -0.11856994 0.046387937 0.18611065 -0.18023132 0.16119921 -0.081707686 -0.16384913
-0.13436936 0.38684997

classifier.1.bias f4 [2]
00000000: 81ed 9abd 5d45 893e
-0.075648315 0.26810732
