pyopencl/GestureAccelNet.pth (torch, 13263 bytes, 8 tensors)

features.0.weight f4 [64, 1, 1, 1]
000000 9c 65 3a bf a8 0f 56 bf 29 7e 4c be 61 75 35 be
       -0.72811294 -0.8361764 -0.19970001 -0.17720558
000010 e5 85 07 bf 2d b0 fe 3e e7 7a 37 3f f2 f6 7c bf
       -0.5293868 0.49743786 0.7167191 -0.9881431
000020 1e 54 bb 3e ee 72 d4 bd c3 6a d5 be 39 46 04 3f
       0.36587614 -0.103734836 -0.41683015 0.5166965
000030 ab d7 a0 bc 66 75 24 be 56 06 c3 bd 23 66 66 3f
       -0.019634089 -0.16060409 -0.09522693 0.899996
000040 d3 b2 16 be af 1c 64 3e 41 0c 3c bd 35 6a 46 be
       -0.14716654 0.22276567 -0.045910124 -0.19376452
000050 12 3a 16 bf 3d 9f 9e be b3 6b 90 3e 90 6d 76 bf
       -0.5868236 -0.30980864 0.28207168 -0.9626093
000060 fc b6 9a bd 4b 33 3e 3f 90 57 c4 be 7d 2b 40 bf
       -0.07554433 0.74297017 -0.38348055 -0.7506636
000070 38 fa 4f 3f 2b c6 3f bf e8 ea 0c be 14 38 41 bf
       0.8124118 -0.74911755 -0.13761485 -0.75476193
000080 8c dd 6f bf 08 a8 02 bf 13 9d 2b 3f da 8b 5d 3f
       -0.9369743 -0.51037645 0.6703655 0.8654152
000090 1d 4d 4a 3f a4 ba 90 3e 29 11 86 be 80 11 70 3f
       0.79023916 0.28267395 -0.26184967 0.937767
0000a0 4d 81 3e bf d6 6e 78 3e 89 16 0b be 1f 10 dc bc
       -0.7441605 0.2426103 -0.13582815 -0.026863156
0000b0 6b b8 ea 3e c2 04 60 3f a1 86 3c 3c bf f7 35 3f
       0.45843825 0.8750726 0.011506707 0.71081156
0000c0 f9 27 3d 3f 4e 6f 4f 3e 89 2b e4 3c 03 8e 2b 3f
       0.7388912 0.20257303 0.02785279 0.6701357
0000d0 d9 3f e7 3e 11 a0 ce 3e b2 59 78 3f 2f 69 09 3e
       0.451659 0.40356496 0.97011864 0.1341903
0000e0 04 37 b9 be 59 97 3f 3f 34 3f a0 3e 65 9f 4b bf
       -0.36174786 0.74840313 0.3129822 -0.7954009
0000f0 2b 3e c2 3e 9b d3 d4 be 58 83 5e 3f 0a d6 26 3f
       0.37938055 -0.41567692 0.86919165 0.6517035

features.0.bias f4 [64]
000000 0c 9b 89 be 90 db 9f bd 68 d5 3e bf 00 01 35 bd
       -0.26876104 -0.0780555 -0.7454438 -0.044190407
000010 b0 cc c1 be b0 a1 18 3e 20 79 46 3d 58 f3 ed 3e
       -0.37851477 0.14905429 0.048455358 0.4647472
000020 42 14 38 3f a0 27 1e bf 90 03 46 bf d8 b0 bc be
       0.7190591 -0.6177921 -0.77349186 -0.3685367
000030 38 4a 91 3e 0c dd 85 be 0c 1e 22 bb 5c 07 94 3e
       0.28376937 -0.26145208 -0.0024737148 0.28911865
000040 94 19 82 be 68 9a 77 3e 40 5e 39 bd 30 39 e0 bd
       -0.2541014 0.24179995 -0.0452559 -0.10948408
000050 e8 cf 95 be 88 b8 23 3e 00 0a 11 bf 90 5c 85 3e
       -0.29260182 0.15988362 -0.56655884 0.26047182
000060 82 0f 18 bf fc a5 53 bf 90 87 db 3e d0 04 a1 be
       -0.59398663 -0.8267515 0.42876863 -0.31448984
000070 24 03 c9 3e 44 03 21 3f b8 bd bd be d8 d1 db be
       0.3926021 0.6289561 -0.37058806 -0.42933536
000080 94 22 f1 3e dc 60 b5 be b8 41 17 3e c0 a2 c7 3d
       0.47096694 -0.3542546 0.14771163 0.09747839
000090 a8 41 16 bf 30 04 da 3d f8 7a 41 3e d6 e5 5a 3f
       -0.58693933 0.1064533 0.18894565 0.8550695
0000a0 f0 5d 44 bf aa c3 6c 3f 78 f7 71 be ec bc 2d 3f
       -0.7670584 0.9248606 -0.23629558 0.67866397
0000b0 d8 90 21 3f 64 89 17 3f 20 a1 bc 3d 80 d5 00 be
       0.6311164 0.59194016 0.0921042 -0.12581444
0000c0 00 c5 62 bf c6 9f 32 3f aa dc 24 3f 40 6d 84 be
       -0.8858185 0.69775045 0.64399207 -0.258646
0000d0 b4 b6 30 3f 24 27 50 bf 88 f8 20 bf 30 bb ea 3d
       0.6902878 -0.81309724 -0.6287923 0.114614844
0000e0 00 2d a3 be 60 bc d2 3e 84 f3 ee 3e d4 c8 9e 3e
       -0.3187027 0.41159344 0.46670163 0.31012595
0000f0 ac bf 6f bf 36 17 6a 3f 20 11 61 bd fc 22 af 3e
       -0.93651843 0.9144167 -0.054947972 0.34206378

features.2.weight f4 [32, 64, 1, 1]
000000 90 fc 06 3c c0 94 31 3d c0 dc a7 bd 20 00 aa bd
       0.0082389265 0.04335475 -0.081964016 -0.08300805
000010 20 05 49 bc e4 1d 8d 3d 9c c6 27 bd 72 8d 95 bd
       -0.012269288 0.06890467 -0.040960893 -0.07302369
000020 6c 45 6a bd f8 f4 74 bd 3a ea fa 3d c6 a5 fd 3d
       -0.057195112 -0.059803933 0.122517064 0.123851344
000030 4c b0 6c bd fe 23 94 bd c0 b8 c5 3c 40 a6 7a bb
       -0.057785317 -0.072334275 0.024135947 -0.0038246065
000040 2e dc c8 bd bc 33 09 bd 84 e1 81 3d b8 4a c5 3c
       -0.09807621 -0.033496603 0.06341842 0.02408348
000050 60 01 19 bc c8 ff 58 3d e0 6a b2 bb c0 fe b8 bd
       -0.009338707 0.052978307 -0.0054448694 -0.09032965
000060 18 d4 0b bd 80 cf fc bd 18 78 c7 3c a4 47 0b 3d
       -0.034137815 -0.12344265 0.024349257 0.03400387
000070 9c c0 0d bd d6 05 f2 bd e0 90 fe 3b 2a ba f0 3d
       -0.034607515 -0.11817519 0.0077687353 0.11754258
000080 68 81 4d bd 50 d2 ea bc f8 e1 d3 bd a8 50 fe bd
       -0.05017224 -0.028664738 -0.103458345 -0.12417728
000090 94 d9 6a 3d ae cb b4 3d 1c 27 db bd ae 66 b1 bd
       0.057336405 0.08827911 -0.10700819 -0.08662163
0000a0 8a 2a c5 3d 8e 63 92 3d 78 77 e0 3d fc 4b d5 bd
       0.09627254 0.07147895 0.10960287 -0.104148835
0000b0 e0 26 b2 bc 28 81 70 bd 90 d1 2c bd 68 66 be bc
       -0.021747053 -0.058716923 -0.042192042 -0.02324219
0000c0 fa 64 99 3d 9e 08 ba bd c8 86 9f bd 20 c1 41 3d
       0.07489963 -0.09083675 -0.07789379 0.04730332
0000d0 ec 15 78 3d 7e f9 81 3d d0 bb e1 3d d6 45 e0 bd
       0.06056778 0.06346415 0.110221505 -0.1095082
0000e0 a2 b8 e2 bd 9e 82 c7 3d 76 a7 ee bd 30 69 49 bd
       -0.11070372 0.0974171 -0.116530344 -0.04917258
0000f0 b4 3f 0a bd 80 89 32 3d 64 9e c9 bd e4 8b 87 3d
       -0.03375216 0.04358816 -0.09844664 0.06618479
000100 18 1c 8c bc f8 35 0e bd 84 b5 bd bd 42 ef ab bd
       -0.01710324 -0.034719437 -0.09263137 -0.08395244
000110 fa 4f c4 bd 00 3a 29 3a 94 c4 0c 3d 20 01 41 3d
       -0.09585567 0.0006455481 0.03436716 0.047120214
000120 f1 41 57 b7 60 87 f8 bb 00 78 8f b8 66 51 c9 3d
       -1.2830352e-05 -0.0075844973 -6.841123e-05 0.09829979
000130 c0 6e e2 3c c0 a3 22 3d 4e 51 9d bd 08 34 c6 bd
       0.0276407 0.039706945 -0.07681523 -0.09677893
000140 00 ca 31 bb 70 d7 c5 bd 50 28 f5 3c be 40 f5 3d
       -0.0027128458 -0.09660232 0.029926449 0.11975239
000150 82 fb e0 bd 90 8a 8e 3d 30 3b 6e bd e4 a5 0f 3d
       -0.10985471 0.069600224 -0.058161914 0.035070315
000160 12 64 c9 3d 26 86 cc bd 80 14 ab 3b 6a bd c1 3d
       0.0983354 -0.09986524 0.0052209496 0.09459956
000170 e8 00 e3 bd 16 e5 91 bd 10 3b 2f 3c ac 9e 77 bd
       -0.11084157 -0.07123773 0.010695234 -0.060454056
000180 a0 1c af 3c 80 df 26 bb 9c 02 b4 3d 56 9b e3 bd
       0.021375954 -0.0025462806 0.0878956 -0.11113612
000190 ac f4 4b 3d da c5 c8 3d 08 d2 c8 bd d4 03 9a 3d
       0.049793884 0.09803362 -0.09805685 0.075202614
0001a0 26 dd d2 3d 00 fd 1e 3a 04 70 25 bd 7e 4c e9 3d
       0.10296087 0.00060649216 -0.04039003 0.11391543
0001b0 5c 19 4c 3d 94 b9 4b 3d 76 10 f7 bd 90 2a a5 bd
       0.049828872 0.049737528 -0.120636865 -0.08064759
0001c0 0e 35 e5 3d 00 e9 9e bc ce 6f d1 3d 70 73 a5 bd
       0.1119176 -0.019398212 0.10226403 -0.080786586
0001d0 4e 0a ab 3d 12 3f cf bd e0 e0 e7 3d 08 7e ab bd
       0.08351575 -0.101194516 0.113221884 -0.08373648
0001e0 c8 d6 d2 3c 98 01 9a bc dc e1 e1 3d d0 f5 4d bd
       0.025737181 -0.018799588 0.110294074 -0.050283253
0001f0 20 2d bc bb 10 64 b1 3d cc fb e7 bd 68 4f 24 3d
       -0.005742684 0.086616635 -0.11327323 0.04011479
000200 65 db e3 3d 09 43 a5 3d fa db 34 3d 89 45 89 bd
       0.111258306 0.080694266 0.0441551 -0.06702716
000210 d8 e5 a1 3d 2a 10 f5 3d e0 13 7e 3c 28 e8 59 bd
       0.07905167 0.11965974 0.015507668 -0.053199917
000220 c0 2a 3b bb fd 61 b9 bd 2f ff 3f 3d da 4e a6 bd
       -0.0028559417 -0.09051893 0.04687422 -0.081205085
000230 58 25 c0 bd 48 5a c5 3d 1a e4 43 3d 58 42 87 3d
       -0.09382123 0.096363604 0.047824956 0.06604451
000240 21 51 9f bd 82 cf e9 3d 0e 1f d2 bd 83 88 4a bd
       -0.07779146 0.11416532 -0.102598295 -0.049446594
000250 9a 5d 8a bd 69 44 7a 3d 76 b4 9a bd 20 1e 8f bd
       -0.06756134 0.061100397 -0.075539514 -0.06988168
000260 2c 7f 8c 3d 58 b9 c6 bc 0d 76 28 3d 29 a6 c9 bd
       0.068601936 -0.0242583 0.041128207 -0.09846146
000270 18 b7 62 bd 90 b6 d4 3d 71 28 81 bd 48 44 44 3d
       -0.055350393 0.103863835 -0.06306542 0.04791668
000280 53 59 99 3d 18 a4 ee bd 64 b0 8e 3d 60 e0 98 bd
       0.0748774 -0.11652392 0.069672376 -0.07464671
000290 80 b2 d6 bc b0 ba ee bc 1a 16 f0 3d 74 9d e7 3d
       -0.026208162 -0.029141754 0.117229655 0.11309329
0002a0 d3 35 24 3d a0 6c 26 bd 55 24 ed bd 20 18 04 bd
       0.040090393 -0.040630937 -0.115791954 -0.03224957
0002b0 40 52 3f 3b 3c 60 be 3d e8 b5 56 3d c0 62 2c bd
       0.0029193312 0.09295699 0.052419573 -0.042086363
0002c0 08 32 7b bd aa 98 96 bd 78 98 1d 3d a0 aa cd bc
       -0.06132701 -0.07353337 0.038475484 -0.025105774
0002d0 22 76 a5 bd a4 3b a1 3d 6c 9d cb 3d dc 7d 12 3d
       -0.08079173 0.07872704 0.09942135 0.03576456
0002e0 c7 ce dd bd 62 f9 9e bd a2 c7 aa 3d 8d 25 73 bd
       -0.10830455 -0.0776241 0.08338858 -0.059361983
0002f0 d2 c4 ee bd 64 2b 31 3d 48 03 cc bd a0 c6 f3 bc
       -0.11658634 0.04325427 -0.09961563 -0.029757798
000300 40 49 f4 bc 58 3e e7 3d 00 7a 85 bb c0 e0 2c bd
       -0.029820085 0.11291188 -0.0040733814 -0.042206526
000310 0a 22 de 3d 14 f0 55 bd 48 10 0f 3d e8 f8 f0 bd
       0.10846336 -0.05223091 0.034927636 -0.11766225
000320 be 38 8d 3d 9a 2b c1 bd c0 65 d8 3b 40 86 dd bd
       0.06895588 -0.094321445 0.0066039264 -0.10816622
000330 72 df a9 3d a0 a5 8f 3c a0 a1 c9 bb b4 ac d9 bd
       0.08294572 0.01753503 -0.0061533004 -0.10628644
000340 80 4a 05 bb 40 eb 16 bd f0 80 49 bc 94 c0 44 bd
       -0.0020338595 -0.036845446 -0.0122988075 -0.04803522
000350 22 e0 9f 3d 3c 26 87 bd 6a ea da 3d 4e 2a 9d 3d
       0.07806422 -0.065990895 0.10689242 0.076740846
000360 9c d7 93 3d 14 e0 54 3d a4 5c 5f 3d 80 60 ab 3a
       0.072188586 0.05197151 0.05453171 0.0013075024
000370 d6 15 ea bd 90 af f5 bd e4 14 8a 3d 00 24 59 bd
       -0.11429946 -0.119963765 0.06742266 -0.053012848
000380 96 a3 c2 bd 64 bb e5 bd 46 4e a5 3d fa 78 95 bd
       -0.09503858 -0.112173826 0.0807157 -0.07298465
000390 7c d0 4a 3d a8 f6 b2 bc f0 53 26 3d 12 33 d4 bd
       0.049515232 -0.02184613 0.040607393 -0.103613034
0003a0 80 ed 65 3b ec 97 4e bd 10 8d c0 bc a8 97 d6 bc
       0.0035084188 -0.050437853 -0.023504764 -0.026195362
0003b0 94 7c 65 3d 58 d6 1b 3d 44 71 b9 bd 5c 5b 31 bd
       0.05602701 0.03804621 -0.09054807 -0.043300018
0003c0 60 88 c7 bc 8a 44 fd bd 5e 50 fd bd d0 b3 65 bc
       -0.02435702 -0.123665884 -0.123688444 -0.014019921
0003d0 c4 97 54 3d b6 8b 8f bd c8 d6 85 bc b0 06 db 3c
       0.051902547 -0.070090696 -0.016337767 0.026736587
0003e0 80 c4 5d 3c 28 a9 f2 bc 72 24 d2 bd 40 d8 9a 3c
       0.013535619 -0.029621676 -0.10260858 0.018901944
0003f0 c0 94 0b bc 58 73 44 3d 4c ce f6 bd b4 47 55 bd
       -0.0085193515 0.047961563 -0.12051067 -0.052070335

features.2.bias f4 [32]
000000 a8 94 a1 bd 70 91 d0 bc 4a 82 c9 bd 08 ae 40 3d
       -0.07889682 -0.025459975 -0.09839304 0.04704097
000010 c0 dc af 3d 02 0f 9d 3d a0 49 95 bd 6c fd 5d bd
       0.085870266 0.07668878 -0.072894335 -0.05419676
000020 80 4d ad bb 40 ba 56 3d f5 05 21 3a e0 cb b3 bd
       -0.0052887797 0.052423716 0.000614255 -0.087791204
000030 58 f8 92 bd ec cc 1d bd 30 c3 64 bc e8 5d b8 bd
       -0.07176274 -0.038525507 -0.013962552 -0.09002286
000040 55 b1 e6 3b 80 ca d8 bc d2 09 8c bd 90 e8 5a bd
       0.0070401826 -0.026463747 -0.068378106 -0.053444445
000050 70 73 d8 bd a0 4c 96 3d 08 69 82 bc 28 3b 12 3d
       -0.10568893 0.07338834 -0.015919223 0.035700947
000060 90 be 51 3d 70 50 b1 bd 90 49 dd 3d 04 3a cd bd
       0.051207125 -0.0865792 0.108050466 -0.10020831
000070 ca 4e be bd 40 99 13 bd 5c f2 0f 3d ac 47 d9 3d
       -0.092923716 -0.036034822 0.03514324 0.106093735

features.4.weight f4 [13, 32, 1, 1]
000000 20 af 06 3d c0 1f 6e 3b da fe 8f bd 19 53 08 3e
       0.032881856 0.0036334842 -0.07031031 0.13312949
000010 12 bb 12 be e8 20 c4 3c 10 0e 4f 3d ac 69 00 be
       -0.14329174 0.023941472 0.05055052 -0.1254031
000020 91 2c f9 3c df 33 f7 3d 05 c3 2d 3d 07 c7 2a bd
       0.030416759 0.120704405 0.042422313 -0.041693714
000030 49 ca 0c 3d 2b fc 32 3e 05 80 1c 3d b3 dc 0d 3e
       0.0343726 0.17479007 0.038208026 0.13853721
000040 48 a1 32 be 88 f2 33 3d c9 69 21 3e f1 0a c5 bd
       -0.17444336 0.043932468 0.1576301 -0.096212275
000050 ff d9 8b 3d 06 58 8b bc bf e4 ba bd b8 e9 b9 bd
       0.06828689 -0.017009746 -0.09125661 -0.090777814
000060 3d 67 52 3d 8a 8f 48 bc d0 1f 98 3d a9 cb db bd
       0.051367987 -0.012241254 0.07427943 -0.107322045
000070 0a 09 88 bd 0a 0c 13 be f6 bc 8f 3c 36 79 db 3d
       -0.06642349 -0.14360061 0.017546158 0.107164785
000080 fe 5f d7 3d c6 0d 9b 3d 96 b7 2b be 48 6a d2 3c
       0.10516356 0.075709864 -0.16769251 0.025685444
000090 68 49 fb 3c 80 50 35 bd 3c 8c 1a 3d 3a e0 e6 bd
       0.030674651 -0.044266224 0.037731394 -0.112732366
0000a0 be b7 c7 bd 62 32 f1 3d a3 77 b2 bd e8 70 09 bd
       -0.09751843 0.11777188 -0.08714225 -0.03355494
0000b0 34 45 be bd 98 cb d1 3c b4 7c 9c bd 92 b0 13 be
       -0.09290543 0.025609776 -0.07640973 -0.14422825
0000c0 36 80 ad 3d 48 c2 ab 3c 80 ea 1f bd be f9 8b 3d
       0.0847172 0.020966664 -0.039041996 0.06834744
0000d0 71 64 09 3e e9 f8 30 be 20 b4 4d 3d 20 e3 5c bc
       0.13417222 -0.17282452 0.05022061 -0.013481885
0000e0 37 27 c3 bd 28 06 2f be 52 64 bf 3d 82 63 8e bd
       -0.09528964 -0.17092192 0.093453065 -0.06952573
0000f0 6a 2d be 3d d2 b0 cb 3d bd 00 21 be f0 a7 33 be
       0.09286006 0.09945835 -0.15722938 -0.17544532
000100 70 1e 7a 3c d8 6a e8 bc 2f f7 1b bd a0 b5 77 bd
       0.015266046 -0.02837126 -0.03807753 -0.060475945
000110 bf de 3a bd 20 52 df bc 9e aa 01 3e db 22 f1 bc
       -0.045622583 -0.02726084 0.12662742 -0.029435566
000120 f2 b5 ea 3d ad 44 2f be 0e e6 0a be 9d 8a 22 3e
       0.114604846 -0.17116041 -0.13564321 0.1587319
000130 1d 88 6b bd bb 24 88 bd f0 93 3c bc b3 50 16 3e
       -0.057502855 -0.06647631 -0.01150988 0.14679222
000140 0b 4d c2 3d ff 75 28 3e bc 70 ca 3c 04 e3 04 be
       0.09487351 0.16451262 0.024711959 -0.12977225
000150 ff 01 eb 3d 30 f1 65 3d 46 54 fa 3d 86 9a 0a 3e
       0.1147499 0.056138217 0.12223105 0.13535509
000160 80 16 c2 bb 56 48 01 be fc 0a c9 bd ac b3 18 be
       -0.0059230924 -0.1262525 -0.09816548 -0.1491229
000170 3c 33 0d be f6 04 a3 3d 59 5a 15 be 6e 12 01 be
       -0.13789076 0.079599306 -0.14585246 -0.12604687
000180 a8 c8 72 3d 30 64 0a bd 64 d9 74 bd ae b3 c2 3d
       0.059273392 -0.033786952 -0.059777632 0.095069274
000190 97 43 00 be e8 84 b4 3c be 21 34 be 93 34 04 3e
       -0.12525783 0.02203603 -0.17590997 0.1291068
0001a0 7e 78 25 be e8 1c 07 3d de e8 09 be 52 9b be 3d
       -0.16159245 0.03298655 -0.13467738 0.09306969
0001b0 80 13 8c ba a0 93 ac 3b c0 38 14 bc 0a b4 92 3d
       -0.0010686964 0.0052666217 -0.009046733 0.07163246
0001c0 b3 f0 ba bd 54 ac ac bd e2 54 fa 3d 1a 23 04 be
       -0.09127941 -0.084313065 0.12223221 -0.12904015
0001d0 3f 02 d4 bd f4 d8 0f 3d 3c 97 57 3d c0 6b 13 be
       -0.10351991 0.035119012 0.052634463 -0.14396572
0001e0 38 5e 24 be 20 6b df bc c0 6d ec bb 6e f8 98 3d
       -0.16051567 -0.02727276 -0.0072152317 0.07469259
0001f0 e4 34 12 bd fa 0d ff 3d e8 e2 61 bd 24 82 e1 bd
       -0.03569497 0.12453838 -0.055148035 -0.110111505
000200 32 02 d3 3d a9 47 32 be 4c 7f 42 3d d1 bc 29 3e
       0.10303153 -0.17410149 0.04748468 0.16575934
000210 75 a9 f1 bd 60 84 0f 3c 10 07 aa bc 24 29 15 3d
       -0.117998995 0.008759588 -0.02075532 0.036416188
000220 a2 7f 91 bd 86 18 17 be 02 e2 b8 3d 28 21 ed bc
       -0.07104422 -0.14755449 0.090274826 -0.028946474
000230 a8 00 4a bd 1b 77 da bd 94 fd e9 bd 60 4e 0b bd
       -0.049317032 -0.10667249 -0.11425319 -0.03401029
000240 2b ed 1c 3e 50 7e 86 bc 58 8b cd 3c f8 f5 d3 bc
       0.15324847 -0.016417652 0.025090858 -0.025874123
000250 2c 27 14 bd 4a b7 ea 3d 17 61 17 be 58 96 d7 bc
       -0.03617017 0.11460741 -0.1478313 -0.026316807
000260 4c 67 42 bd dd c9 13 be 88 63 90 3c 30 30 33 bd
       -0.047461793 -0.14432473 0.017625585 -0.043747127
000270 80 9a 26 bb 1c e7 0b bd 60 63 14 bc d0 19 6f bd
       -0.002542168 -0.03415595 -0.009056896 -0.058374226
000280 ef 5b d7 bd c8 61 88 3d b1 89 a1 3c d9 ff 83 bd
       -0.10515582 0.06659275 0.019718977 -0.064452834
000290 2c b1 b7 3d a0 4f b4 bb ea b9 cf 3d 61 9a c2 3d
       0.0896934 -0.005502656 0.10142882 0.09502102
0002a0 48 82 80 bc f6 37 a3 3d c0 57 a6 3b e1 d2 07 3e
       -0.015687123 0.07969658 0.0050763786 0.13264038
0002b0 23 fd e8 bd ba 29 18 be b3 7e 11 3e b5 b2 31 be
       -0.11376407 -0.14859667 0.14208488 -0.17353328
0002c0 05 3b 05 be 36 ce f8 3d 1c c8 2b bd d4 56 47 3d
       -0.13010795 0.121487066 -0.041938886 0.04866679
0002d0 86 22 9f bc 49 79 07 be ba 23 c0 bd 94 cc b3 3d
       -0.019425642 -0.1322986 -0.09381814 0.087792546
0002e0 82 3c 09 be 77 32 cd bd 20 37 81 3b 4a c6 0b be
       -0.13401988 -0.10019391 0.003943339 -0.1364986
0002f0 5d 9b 81 3d 80 bc b4 bc 7a 1d b3 bd 30 3c da 3c
       0.06328461 -0.02206254 -0.087458566 0.026640028
000300 f8 c7 c7 3c 42 e3 02 be e6 84 64 3d 6d 72 d3 bd
       0.024387345 -0.12782004 0.055790804 -0.10324559
000310 60 a1 03 3e 4e 5f de 3d 17 45 06 3e fe 02 0f 3e
       0.12854528 0.10858022 0.13112293 0.13965985
000320 00 2b 1b be 89 16 18 3e 0f be d8 bc af ca 41 bd
       -0.15153122 0.14852346 -0.026457814 -0.047312435
000330 db e4 78 3d 74 b0 1b bd 38 0d 6e bd 7b 10 06 be
       0.06076513 -0.038010076 -0.058118075 -0.13092224
000340 b9 80 f7 3c 14 a4 20 3e 9d ce c5 bd 6c 38 23 3e
       0.030212747 0.15687591 -0.09658549 0.15939492
000350 ab 5e a5 3d dd c3 9c bd df 39 11 3e 71 be e0 bd
       0.08074697 -0.076545455 0.14182232 -0.10973824
000360 7f 59 64 3c 68 1a ac b9 ca cd 08 3e 0f 62 6d 3d
       0.013937353 -0.0003282607 0.13359752 0.057954844
000370 02 90 22 3e f4 7b 8d 3d 8b 13 ec 3d 84 f0 47 3d
       0.15875247 0.06908408 0.11527165 0.048813358
000380 df 27 12 3e 3a ec e8 bd 05 e8 a6 bd fe 65 ec 3d
       0.14273022 -0.11373182 -0.08149723 0.11542891
000390 08 6a 21 bd cc 0e 35 3d f0 bd 2b bc 3c 20 2a 3d
       -0.03940776 0.044203565 -0.010482296 0.041534647
0003a0 62 d3 27 be 2a 48 cd 3d 59 3b a1 bd 5b 64 08 3e
       -0.1638923 0.1002353 -0.07872648 0.13319533
0003b0 88 d3 2d bd 00 7a 0f 3a f1 c5 cf bd 1c da 36 bd
       -0.04243806 0.00054731965 -0.10145176 -0.0446416
0003c0 98 70 34 be 70 c1 40 bc bc 33 ef bd a8 22 22 3d
       -0.17621076 -0.011764869 -0.116797894 0.039583832
0003d0 cf b4 09 3e ed 69 1e be be 28 81 3d 56 2d 2f be
       0.13447879 -0.15470095 0.06306599 -0.17107138
0003e0 d6 7e 0c be a0 a1 a4 bc b8 7a 20 bd ee 06 e7 bd
       -0.13720259 -0.0200966 -0.039179534 -0.112806186
0003f0 b2 39 12 be d6 4b 78 bd e0 0c 13 be 60 34 1d 3c
       -0.14279822 -0.060619198 -0.1436038 0.009595007

features.4.bias f4 [13]
000000 32 1e 49 3d d3 97 28 be 53 06 b3 bc 70 df bf 3c
       0.049101062 -0.16464166 -0.021853602 0.023421973
000010 f6 e8 a6 3d a2 84 28 be 01 5c 0d 3e 5a 17 7e bd
       0.081499025 -0.16456845 0.13804628 -0.06203399
000020 5e ba bd bd f4 40 fa bd 25 61 31 bd 32 37 8d 3d
       -0.09264062 -0.1221942 -0.043305535 0.06895293
000030 2b a1 2d be
       -0.16956012

classifier.1.weight f4 [2, 13, 1, 1]
000000 a7 0f 3a be 15 24 46 be d2 68 33 be 5c 63 b0 3d
       -0.18170033 -0.19349702 -0.17520455 0.08612701
000010 ea fd ed bd 4e 57 23 3e 49 10 1d 3e 86 a9 44 be
       -0.11620696 0.15951273 0.15338244 -0.19205293
000020 a0 aa 22 be 99 e9 97 3d b1 a3 0b 3e 6e 58 70 3e
       -0.15885401 0.07417602 0.13636662 0.23471233
000030 d8 d8 41 3d 19 60 81 bd 2e 4f 70 be d0 6c 73 3e
       0.04732594 -0.06317157 -0.23467705 0.23771977
000040 6c 33 4f 3e 72 5e 78 3e 65 ff 9c 3d de 5f 18 be
       0.2023446 0.24254778 0.076659 -0.1488032
000050 8a 08 25 3e 00 6c 2e 3e 06 c0 c7 bd 50 55 57 3e
       0.16116539 0.17033386 -0.097534224 0.21028638
000060 dc 2e 09 3e 79 dd 02 be
       0.13396782 -0.12779798

classifier.1.bias f4 [2]
000000 e8 74 aa bb 6c 12 2c be
       -0.0052019246 -0.16803902
