pyopencl/GestureAccelNet.pth (torch, 13263 bytes, 8 tensors)

features.0.weight f4 [64, 1, 1, 1]
-0.69505537 -0.71998405 0.12811707 0.310081 -0.22010198 -0.010348485 -0.5779798 0.5807622
-0.33053288 0.113914676 0.92566067 -0.574823 -0.09456976 0.08067493 0.16635962 0.393892
0.94073343 0.37338328 0.61303 0.12135562 -0.7880971 1.0349685 0.23904927 0.59885013
0.12568799 -0.03515271 -0.4440396 -1.0008929 -0.46339676 -0.4743856 0.7188882 0.88414764
0.22693104 -0.30310416 -0.97894406 -0.1768607 0.41315758 0.69295937 0.8322316 -0.9117816
-0.42742735 -0.96925914 0.34738186 0.8372312 -0.39106587 -0.81785285 0.7380274 -0.9962908
0.7652067 0.83162814 0.84075516 -0.09609494 -0.689167 -0.8566025 -0.9147664 0.72200453
0.402496 -0.33200407 0.2066223 0.69044554 0.36054593 -0.94876283 0.84550494 0.5806586
00000000: 26ef 31bf e050 38bf 1f31 033e f0c2 9e3e
00000010: 6a62 61be b18c 29bc 7cf6 13bf d5ac 143f
00000020: 9b3b a9be 194c e93d 19f8 6c3f 9a27 13bf
00000030: caad c1bd e638 a53d 2d5a 2a3e 36ac c93e
00000040: e8d3 703f 182c bf3e 89ef 1c3f 4c89 f83d
00000050: bbc0 49bf d979 843f 55c9 743e 3e4e 193f
00000060: 5ab4 003e 4afc 0fbd 2959 e3be 421d 80bf
00000070: 5742 edbe abe2 f2be 0f09 383f 8057 623f
00000080: 9c60 683e 7830 9bbe 149c 7abf f91a 35be
00000090: 6489 d33e c965 313f 210d 553f 856a 69bf
000000a0: c2d7 dabe 5e21 78bf 09dc b13e c954 563f
000000b0: c939 c8be ce5e 51bf 5def 3c3f ea0c 7fbf
000000c0: 96e4 433f 95e5 543f bb3b 573f 6dcd c4bd
000000d0: 406d 30bf 4d4a 5bbf 212e 6abf 4ad5 383f
000000e0: f513 ce3e 70fc a9be cc94 533e 0ac1 303f
000000f0: 7a99 b83e 1fe2 72bf 0373 583f 0ba6 143f

features.0.bias f4 [64]
0.79564893 -0.69887817 0.50797844 0.7720532 0.7657523 0.7039487 0.16904034 0.09840178
-0.54952925 -0.9753666 0.34183592 0.5845717 -0.93583596 -0.92184055 0.100184254 -0.28912
0.76638913 -0.06919082 -0.7868105 0.13152348 0.38036472 0.056401756 0.92583823 0.41395333
-0.16859436 0.89119416 0.3310268 0.30430362 -0.2613871 0.74808615 -0.21364978 -0.6531574
-0.1371093 0.12023187 -0.49176055 -0.28441784 0.799997 0.15770707 0.1763457 0.29240584
0.58022875 -0.123749524 0.7622845 0.4386013 -0.36368775 -0.87649554 -0.0800363 0.7078442
0.4300903 -0.0345977 0.40104738 0.16211642 -0.07156529 -0.054716982 0.16844909 0.12363672
-0.9890044 0.16760817 -0.83444744 0.95145154 0.5484025 -0.9185455 0.40884182 -0.12557997
00000000: a6af 4b3f aee9 32bf e00a 023f 47a5 453f
00000010: 5808 443f fb35 343f e918 2d3e df86 c93d
00000020: f3ad 0cbf a0b1 79bf 1e05 af3e 7ea6 153f
00000030: f292 6fbf befd 6bbf 672d cd3d 8907 94be
00000040: 1432 443f ebb3 8dbd 6a6c 49bf 17ae 063e
00000050: 2abf c23e 8705 673d bc03 6d3f b1f1 d33e
00000060: 00a4 2cbe 4d25 643f 587c a93e afcd 9b3e
00000070: 88d4 85be 9382 3f3f 02c7 5abe 5335 27bf
00000080: 6166 0cbe 203c f63d 0ac8 fbbe 379f 91be
00000090: 9acc 4c3f f67d 213e f893 343e 38b6 953e
000000a0: df89 143f 6470 fdbd 1425 433f 5990 e03e
000000b0: 4835 babe 0362 60bf 12ea a3bd 4735 353f
000000c0: cc34 dc3e 51b6 0dbd 1556 cd3e d901 263e
000000d0: d390 92bd ea1e 60bd eb7d 2c3e 4035 fd3d
000000e0: 642f 7dbf 7aa1 2b3e 599e 55bf 5492 733f
000000f0: 1b64 0c3f cc25 6bbf b753 d13e 0998 00be

features.2.weight f4 [32, 64, 1, 1]
0.019535055 0.003022631 -0.044792634 -0.0018228897 -0.11816887 0.078971624 0.09710919 0.049578123
0.002472535 0.06426173 -0.034823384 -0.1078653 -0.006265401 0.061366748 -0.028307587 -0.01460812
-0.14278966 0.067094445 0.028271217 -0.113010585 -0.020800471 -0.121702515 -0.018226232 -0.1466258
0.006665123 -0.12072272 -0.08037506 -0.0902147 0.03654883 -0.101361826 -0.19688272 -0.11697979
-0.0016432615 -0.0562056 0.0938166 0.08387303 -0.12384848 -0.17261142 0.021615619 0.0905005
0.086212866 0.11774198 0.08969033 -0.029262263 0.040809076 0.08772331 -0.18912101 0.116883814
0.022109274 0.016779715 -0.10261775 0.03199245 0.051825013 0.099081025 -0.04236562 -0.12546025
0.0490456 -0.07988197 0.026295457 -0.0058806855 -0.013253075 -0.049946282 -0.008295208 0.031220453
-0.117929086 0.08935754 0.102710575 -0.003677085 -0.107792646 0.07035039 0.089967296 -0.10420264
0.06578021 -0.10493758 -0.02383785 -0.011091381 -0.005910322 0.07896322 -0.07416862 -0.058332622
-0.0054425746 0.04431796 -0.10046524 0.00038954616 -0.050393865 -0.101256505 -0.07217808 -0.07674967
-0.09997842 -0.06681228 -0.121268824 -0.074486256 0.08570868 -0.040877685 -0.09971839 -0.06972104
0.09650266 -0.0740169 -0.1156742 0.093543485 -0.12101181 0.035352096 -0.007126376 -0.09124835
-0.091410235 0.06809726 0.07026903 -0.11922909 -0.07097508 0.008647606 -0.016184017 -0.005432412
0.05342771 -0.017073706 0.04956256 -0.079064116 -0.021581516 0.1194877 -0.047272086 0.036835983
-0.0996986 -0.11494726 0.038789883 0.020070702 0.017934814 -0.08787161 -0.074582085 -0.0531895
-0.10469618 -0.07351844 0.02365753 -0.054096356 0.042312186 -0.100126065 0.08972021 -0.025285065
-0.06584588 -0.06380813 0.04334131 -0.009922665 -0.117611 0.08708638 -0.12179294 0.0027099103
0.10586986 -0.027112424 -0.060093015 -0.022218958 0.058491588 0.019951731 -0.09622873 -0.077142924
0.018126354 0.009155873 0.005261328 -0.08122507 -0.06398892 -0.029388193 -0.020724535 0.1128383
0.12488404 -0.0018889665 -0.0638634 0.0010907475 -0.08916262 -0.069943845 0.07346892 0.062434997
-0.09357775 0.11733994 0.086392626 -0.06547184 0.11747917 0.10833495 0.045395017 0.11248012
0.06004031 0.04079546 0.03224151 -0.03102185 -0.0071979095 0.121364795 0.01024085 -0.056635097
-0.1098391 0.115359746 -0.11052807 -0.071352184 0.058146387 -0.0006283611 -0.075000316 -0.025766
0.021553557 -0.0055165896 0.022120578 0.054687243 -0.0011436011 -0.05976123 -0.034399733 -0.20285976
-0.115493216 -0.01636472 -0.06516581 -0.04261515 0.10122807 -0.10715566 -0.14697155 -0.056089345
-0.09163763 -0.053762127 -0.11525673 -0.10587273 0.0962541 -0.27805066 -0.00080812577 -0.1206408
0.008432977 0.049400378 0.006098206 0.116079524 -0.11754843 0.027752664 -0.106544144 -0.15652291
-0.10200744 -0.0126899425 -0.012007437 -0.103279874 0.0034974408 -0.10271257 -0.19048157 -0.015730275
0.09886738 -0.10880219 -0.17396693 -0.15003216 -0.10870125 -0.05934218 -0.023935724 0.09223695
-0.061917398 -0.101976454 -0.037638325 0.09247797 0.07114325 -0.012707851 0.09847457 -0.03251368
-0.16923834 0.042901844 0.08651786 -0.097100794 0.04591339 0.025264615 -0.07446583 -0.08710162
00000000: fb07 a03c 5517 463b 7b78 37bd 07ee eeba
00000010: 8502 f2bd e0bb a13d 2fe1 c63d 6e12 4b3d
00000020: 410a 223b a79b 833d f7a2 0ebd 7be8 dcbd
00000030: fe4d cdbb b35b 7b3d 50e5 e7bc e556 6fbc
00000040: 7437 12be d068 893d 0a99 e73c 1872 e7bd
00000050: c065 aabc 2b3f f9bd 2e4f 95bc 1325 16be
00000060: 1b67 da3b 793d f7bd ae9b a4bd 7cc2 b8bd
00000070: 3ab4 153d ca96 cfbd a09b 49be 1a93 efbd
00000080: b562 d7ba d837 66bd eb22 c03d a0c5 ab3d
00000090: 46a4 fdbd 0cc1 30be 3d13 b13c 5358 b93d
000000a0: 5f90 b03d b522 f13d 90af b73d 6ab7 efbc
000000b0: 6b27 273d 47a8 b33d f0a8 41be c860 ef3d
000000c0: 821e b53c 9d75 893c 4129 d2bd 840a 033d
000000d0: 7746 543d feea ca3d 9387 2dbd a778 00be
000000e0: 0ae4 483d 2999 a3bd 9269 d73c c4b2 c0bb
000000f0: 6d23 59bc 7994 4cbd a0e8 07bc 09c2 ff3c
00000100: ce84 f1bd 1601 b73d ec59 d23d 40fb 70bb
00000110: 64c2 dcbd de13 903d c640 b83d 3268 d5bd
00000120: c6b7 863d 84e9 d6bd 9847 c3bc a0b8 35bc
00000130: 60ab c1bb 78b7 a13d b8e5 97bd 30ee 6ebd
00000140: a057 b2bb c086 353d b8c0 cdbd 003c cc39
00000150: cc69 4ebd 925f cfbd 1ad2 93bd ee2e 9dbd
00000160: 7cc1 ccbd e0d4 88bd ca5b f8bd 408c 98bd
00000170: 0888 af3d 5c6f 27bd 2839 ccbd e8c9 8ebd
00000180: 30a3 c53d 2c96 97bd 98e6 ecbd ba93 bf3d
00000190: 0ad5 f7bd 5ccd 103d 6084 e9bb 6ae0 babd
000001a0: 4a35 bbbd 9476 8b3d 36e9 8f3d 622e f4bd
000001b0: 625b 91bd b0ae 0d3c 5894 84bc 6002 b2bb
000001c0: 04d7 5a3d 28de 8bbc 1c02 4b3d 5eec a1bd
000001d0: b8cb b0bc f8b5 f43d 60a0 41bd 54e1 163d
000001e0: c82e ccbd 7869 ebbd 24e2 1e3d 506b a43c
000001f0: 08ec 923c 08f6 b3bd 7ebe 98bd 3cdd 59bd
00000200: f36a d6bd d690 96bd 70cd c13c 2494 5dbd
00000210: 8b4f 2d3d e50e cdbd 3bbf b73d a022 cfbc
00000220: 34da 86bd d6ad 82bd a886 313d ac92 22bc
00000230: 09de f0bd 585a b23d 946e f9bd c098 313b
00000240: 4cd2 d83d e01a debc 1824 76bd 8804 b6bc
00000250: e094 6f3d d071 a33c 9213 c5bd 1cfd 9dbd
00000260: b87d 943c 8402 163c 3867 ac3b 5459 a6bd
00000270: 9f0c 83bd 82bf f0bc 80c6 a9bc c417 e73d
00000280: 34c3 ff3d 3397 f7ba d0ca 82bd 6af7 8e3a
00000290: e49a b6bd b83e 8fbd e076 963d d7bb 7f3d
000002a0: b1a5 bfbd ec4f f03d 9eee b03d 1a16 86bd
000002b0: eb98 f03d b7de dd3d 20f0 393d fa5b e63d
000002c0: d4ec 753d 2419 273d ac0f 043d 8921 febc
000002d0: 71dc ebbb 1b8e f83d 3dc9 273c 34fa 67bd
000002e0: 52f3 e0bd bb41 ec3d 8a5c e2bd 1821 92bd
000002f0: e82a 6e3d 99b8 24ba c499 99bd 3813 d3bc
00000300: 1691 b03c 82c4 b4bb 3736 b53c bbff 5f3d
00000310: e3e4 95ba 31c8 74bd bce6 0cbd 78ba 4fbe
00000320: b587 ecbd 4e0f 86bc a775 85bd 398d 2ebd
00000330: aa50 cf3d 6d74 dbbd b67f 16be f1bd 65bd
00000340: 82ac bbbd ad35 5cbd b80b ecbd cdd3 d8bd
00000350: df20 c53d a85c 8ebe 67d8 53ba 8612 f7bd
00000360: 782a 0a3c 0d58 4a3d 76d3 c73b 1abb ed3d
00000370: 3bbd f0bd 8e59 e33c d133 dabd 8b47 20be
00000380: 47e9 d0bd 7ae9 4fbc d7ba 44bc 6684 d3bd
00000390: 5235 653b f85a d2bd 9a0d 43be c7dc 80bc
000003a0: fb7a ca3d afd3 debd 6324 32be 08a2 19be
000003b0: c39e debd c910 73bd da14 c4bc bae6 bc3d
000003c0: 199d 7dbd 08d9 d0bd a52a 1abd 1765 bd3d
000003d0: 8db3 913d 9734 50bc 09ad c93d 112d 05bd
000003e0: d14c 2dbe d8b9 2f3d 4730 b13d c8dc c6bd
000003f0: ae0f 3c3d bdf7 ce3c 8b81 98bd 5662 b2bd

features.2.bias f4 [32]
-0.12098402 -0.117499456 -0.09357153 0.033190683 -0.11761154 -0.0620599 -0.07593292 -0.06266187
-0.10215351 -0.069658585 0.020175986 -0.049431197 0.03877069 -0.0082025835 0.056949697 0.11838101
-0.04947978 -0.016147047 0.041982986 0.068132006 -0.025723776 -0.12306406 -0.034293134 -0.027475523
-0.059510782 0.034368612 -0.040368184 0.118520916 0.0956498 -0.045031477 -0.0010926612 0.043585468
00000000: 78c6 f7bd 8ea3 f0bd 6ea2 bfbd f4f2 073d
00000010: 52de f0bd 8632 7ebd b882 9bbd de54 80bd
00000020: dc35 d1bd 29a9 8ebd 1c48 a53c 5e78 4abd
00000030: 04ce 1e3d 2164 06bc 1644 693d be71 f23d
00000040: 4fab 4abd d046 84bc 5af6 2b3d cb88 8b3d
00000050: abba d2bc 0309 fcbd f576 0cbd 5914 e1bc
00000060: 94c1 73bd 1ac6 0c3d 1c59 25bd 18bb f23d
00000070: 0be4 c33d ed72 38bd a037 8fba ad86 323d

features.4.weight f4 [13, 32, 1, 1]
-0.095436215 0.10515837 0.06600158 -0.026600197 0.16553916 0.17013668 0.16214554 -0.16567384
0.17653142 0.15074171 -0.07598952 -0.15489091 -0.11736548 -0.15526073 -0.06584271 0.0790243
-0.08992751 0.17410366 -0.022289492 -0.16963196 0.03389007 -0.10503241 -0.05527492 -0.1257391
-0.11176 0.09717788 0.010203649 0.14215417 -0.07947644 0.060050786 0.08716665 -0.008347586
0.07832665 -0.11599085 -0.019246565 0.04946822 0.14035629 -0.12127068 -0.011773109 0.14465319
0.03196963 0.078870334 0.09788179 0.08573848 -0.057643507 0.06411978 0.13749687 0.12108658
0.12509958 -0.10022615 0.114325464 0.1220716 0.1637836 -0.13953327 0.11479713 -0.117504016
0.11653142 -0.015294135 -0.023023749 0.07259317 0.12923712 0.14860399 -0.017462583 -0.17631783
-0.042695645 -0.087944284 0.03330505 -0.12682281 -0.0879147 0.01268214 0.019165874 -0.07292251
-0.051896997 -0.16624196 -0.0024764687 0.14927955 0.043663874 0.059346348 -0.14754517 -0.17398638
0.044480372 -0.16234414 0.17168473 -0.12356967 0.14680515 -0.13186148 -0.03699917 0.1625121
-0.017663106 0.10681723 -0.15157634 0.005478859 -0.13097335 0.04303334 -0.09616821 -9.357929e-06
0.07384519 -0.058766954 -0.16654436 -0.07493779 -0.011087194 0.17307915 -0.020503089 -0.1241746
-0.11138299 0.00095048634 0.12427701 0.055107325 -0.04239963 0.096850954 0.12777849 -0.13962212
0.1735823 0.07904889 -0.11885605 -0.11625357 0.047233194 -0.03081286 -0.1402164 -0.08507166
0.018904254 -0.13147144 -0.072353534 -0.08989345 -0.16264391 -0.10479972 0.08078416 0.05227539
0.03027512 0.10814817 -0.13368589 0.13771959 0.07518749 0.1606599 -0.17538992 0.04715295
-0.106974736 -0.07633022 0.11321643 -0.14666007 0.03867968 -0.035459325 -0.094574824 0.038107395
-0.11887598 -0.0017534941 -0.02154813 -0.07348581 -0.12439678 0.05124812 -0.02659814 -0.04017937
0.04940617 -0.0002143021 0.15729605 0.14834715 0.07098122 0.020476092 0.11609025 0.0046150535
0.049850944 0.0695755 -0.11462445 0.15251897 0.030682314 -0.0788676 0.03012535 0.06230931
-0.094672546 -0.17212722 -0.059334144 -0.17115323 0.0004058825 -0.029861584 0.06226387 0.15411039
-0.11699368 0.11052249 0.00024151836 0.024394335 -0.14415337 -0.1786318 -0.067541264 0.018424006
0.080510214 0.08049056 0.026152402 -0.13425756 -0.036971856 0.09851028 0.050462224 -0.062153175
-0.39403245 -0.14249921 -0.06280761 -0.42641956 -0.004535515 -0.11662001 -0.052581035 -0.17893167
0.026419356 -0.39998737 -0.018080939 0.007351771 0.118876874 -0.31611642 -0.17445879 -0.10653053
-0.50848526 -0.081017286 0.0046374565 -0.19754748 -0.18025042 -0.03564865 -0.6656407 -0.31160378
-0.109337494 0.06008552 -0.22412905 0.123165324 -0.27695835 -0.14570424 -0.13587548 -0.14269114
0.007078659 0.06879632 0.08732381 0.09951793 -0.0819527 0.06156514 0.16405006 -0.05138582
0.1603657 -0.1154872 -0.028961604 0.10172697 0.037901968 0.023051187 0.025678644 -0.034441054
-0.09980576 0.025767967 0.0072076 0.0349995 0.14021792 0.017178541 -0.09074854 -0.1042456
-0.045168266 -0.009470075 0.16393693 0.007708907 0.031168945 0.08241616 0.15132439 0.16074638
00000000: 1074 c3bd 465d d73d d62b 873d a8e8 d9bc
00000010: 1983 293e 4f38 2e3e 7b09 263e 67a6 29be
00000020: a7c4 343e 095c 1a3e 65a0 9bbd b99b 1ebe
00000030: 505d f0bd abfc 1ebe 8bd8 86bd 7ed7 a13d
00000040: ea2b b8bd 3b48 323e 7498 b6bc 00b4 2dbe
00000050: 50d0 0a3d 3b1b d7bd f467 62bd c0c1 00be
00000060: 6de2 e4bd 3205 c73d 352d 273c dd90 113e
00000070: 8bc4 a2bd d0f7 753d 6e84 b23d 50c4 08bc
00000080: b969 a03d 9c8c edbd f9aa 9dbc 309f 4a3d
00000090: 8fb9 0f3e c35c f8bd 00e4 40bc f71f 143e
000000a0: 96f2 023d c586 a13d 3f76 c83d a897 af3d
000000b0: 991b 6cbd 3b51 833d fbcb 0c3e 3efc f73d
000000c0: 1b1a 003e 5e43 cdbd 7823 ea3d ad00 fa3d
000000d0: e3b6 273e cfe1 0ebe c21a eb3d f2a5 f0bd
000000e0: 06a8 ee3d 4094 7abc 4d9c bcbc baab 943d
000000f0: bc56 043e a52b 183e b10d 8fbc a98c 34be
00000100: a1e1 2ebd 221c b4bd e06a 083d d7dd 01be
00000110: 9f0c b4bd c0c8 4f3c c001 9d3c 6658 95bd
00000120: f291 54bd 553b 2abe 404c 22bb bddc 183e
00000130: e4d8 323d 2815 733d 1516 17be 7c29 32be
00000140: 0d31 363d 8b3d 26be 1fce 2f3e 1812 fdbd
00000150: 1754 163e b206 07be 718c 17bd 9269 263e
00000160: 38b2 90bc fec2 da3d d436 1bbe 0088 b33b
00000170: e11d 06be ba43 303d d7f3 c4bd 0000 1db7
00000180: 263c 973d 9eb5 70bd 9b8a 2abe fc78 99bd
00000190: 10a7 35bc a93b 313e 18f6 a7bc 414f febd
000001a0: c41c e4bd 0f2a 793a f284 fe3d 38b8 613d
000001b0: 3cab 2dbd cb59 c63d 5dd8 023e 1af9 0ebe
000001c0: 8fbf 313e 62e4 a13d cd6a f3bd 5a16 eebd
000001d0: 9877 413d 406b fcbc e394 0fbe 0d3a aebd
000001e0: 18dd 9a3c 73a0 06be 172e 94bd 0f1a b8bd
000001f0: 208c 26be 3ca1 d6bd 2a72 a53d b81e 563d
00000200: 8703 f83c ca7c dd3d f4e4 08be 5d06 0d3e
00000210: e6fb 993d 0784 243e 6a99 33be 7423 413d
00000220: 9215 dbbd 0553 9cbd 04de e73d 0f2e 16be
00000230: 966e 1e3d cc3d 11bd 72b0 c1bd 8016 1c3d
00000240: 4075 f3bd 80d5 e5ba b485 b0bc ba7f 96bd
00000250: bdc3 febd 8ce9 513d 58e4 d9bc 2093 24bd
00000260: 205e 4a3d 48b6 60b9 3712 213e 51e8 173e
00000270: 9a5e 913d 7abd a73c bac0 ed3d e039 973b
00000280: 8130 4c3d 9a7d 8e3d 39c0 eabd ef2d 1c3e
00000290: 7a59 fb3c 5685 a1bd 70c9 f63c 0c38 7f3d
000002a0: aee3 c1bd 1e42 30be 5c08 73bd cb42 2fbe
000002b0: a1cc d439 48a0 f4bc 6608 7f3d 1dcf 1d3e
000002c0: 629a efbd 9e59 e23d 1740 7d39 a1d6 c73c
000002d0: f19c 13be 41eb 36be 1353 8abd f1ed 963c
000002e0: 8ae2 a43d 3cd8 a43d 903d d63c d07a 09be
000002f0: cd6f 17bd c2bf c93d 7ab1 4e3d 5494 7ebd
00000300: 9fbe c9be 50eb 11be 47a1 80bd aa53 dabe
00000310: a89e 94bb 79d6 eebd 365f 57bd dd39 37be
00000320: 686d d83c 25cb ccbe 7a1e 94bc 20e7 f03b
00000330: b875 f33d 03da a1be 53a5 32be ae2c dabd
00000340: 172c 02bf 64ec a5bd cef5 973b e349 4abe
00000350: 9193 38be 5204 12bd 6e67 2abf 888a 9fbe
00000360: 56ec dfbd 3c1c 763d 1682 65be 1a3e fc3d
00000370: 7ccd 8dbe 7e33 15be f122 0bbe a01d 12be
00000380: 18f4 e73b 16e5 8c3d d3d6 b23d 0ed0 cb3d
00000390: d1d6 a7bd ba2b 7c3d bdfc 273e f079 52bd
000003a0: e836 243e 8e84 ecbd e340 edbc 3b56 d03d
000003b0: 183f 1b3d d8d5 bc3c 055c d23c 1012 0dbd
000003c0: f666 ccbd 5817 d33c bb2d ec3b a35b 0f3d
000003d0: 4995 0f3e 03ba 8c3c 5fda b9bd b87e d5bd
000003e0: 5c02 39bd 6028 1bbc 15df 273e 009b fc3b
000003f0: 0456 ff3c cec9 a83d c8f4 1a3e b39a 243e

features.4.bias f4 [13]
0.14583449 0.02647321 0.0333765 -0.00051066926 -0.15245385 -0.010708288 0.06910862 0.026201695
0.16451941 0.0354584 0.051355775 -0.034448486 0.1654203
00000000: a355 153e 58de d83c ccb5 083d 6fde 05ba
00000010: dd1c 1cbe d171 2fbc d288 8d3d f0a4 d63c
00000020: c777 283e d43c 113d 6f5a 523d db19 0dbd
00000030: f063 293e

classifier.1.weight f4 [2, 13, 1, 1]
-0.088335 -0.10110621 -0.27478155 0.07036546 0.099609435 -0.17914084 -0.83195025 0.1180946
-0.17820401 -0.030080587 -0.05294668 0.2995719 -0.09508381 -0.16511555 -0.2769775 -0.04664609
-0.041094273 -0.018414645 0.01580745 -0.16988094 -0.03331628 0.084378526 -0.22027332 -0.15468575
0.12706493 -0.015165489
00000000: fbe8 b4bd c610 cfbd 2bb0 8cbe c41b 903d
00000010: 0800 cc3d b270 37be b1fa 54bf 95db f13d
00000020: 1d7b 36be 906b f6bc 9ede 58bd 7d61 993e
00000030: 4dbb c2bd 0d14 29be ffcf 8dbe f80f 3fbd
00000040: 7852 28bd 4fda 96bc a07e 813c 45f5 2dbe
00000050: a776 08bd a6ce ac3d 548f 61be f165 1ebe
00000060: 4f1d 023e ac78 78bc

classifier.1.bias f4 [2]
0.13496888 -0.22656949
00000000: 4835 0a3e d501 68be
