pyopencl/GestureAccelNet2.pth (torch, 31375 bytes, 8 tensors)

features.0.weight f4 [30, 192]
0	0xbc333f00	-0.010940313
1	0x3d74866c	0.059698507
2	0xbd6de4b6	-0.058079444
3	0x3c2edf85	0.010673408
4	0xbd898cc4	-0.06716302
5	0x3c43aff6	0.011943808
6	0xbc6dcc00	-0.014513969
7	0xbcd46f7a	-0.025932062
8	0x3c863194	0.016381063
9	0x3d0b7195	0.034043867
10	0x3c1bc1e7	0.009506679
11	0x3e04b36b	0.12959068
12	0xbb15fede	-0.0022887508
13	0xbca5473e	-0.020175572
14	0x3dab2781	0.08357144
15	0xbd677fc4	-0.05651833
16	0xbb9289fe	-0.0044720164
17	0x3c8403b2	0.016115043
18	0xbd3266e1	-0.043555144
19	0xbd482c3a	-0.048870303
20	0x3d3c8e35	0.046034057
21	0xbd97d13c	-0.07412955
22	0xbd336688	-0.043798953
23	0x3d8c4a95	0.06850163
24	0x3ca9fc49	0.020750182
25	0x3bb68411	0.0055699428
26	0x3cedc4a7	0.029024435
27	0xbd34c63f	-0.044134375
28	0x3d4e481c	0.050361738
29	0x3d60e10e	0.05490213
30	0x3d6715ed	0.056417394
31	0x3d538d82	0.051648624
32	0x3cd2b216	0.025719684
33	0x3d60bb2b	0.054865997
34	0x3d6ea017	0.058258142
35	0xbb905f1a	-0.0044058682
36	0xbd7f38e2	-0.062310107
37	0x3ad6aa86	0.0016377724
38	0x3cf4e5af	0.029894678
39	0xbc4b0bf3	-0.012392986
40	0x3cfe1818	0.031017348
41	0x3d312de6	0.043256663
42	0xbd34d185	-0.044145126
43	0xbd0d8c4b	-0.034557622
44	0x3c984e7a	0.018592108
45	0xbc92d2c7	-0.017922772
46	0xbcb55e24	-0.022139616
47	0xbd5131ad	-0.051072765
48	0x3d003658	0.031301826
49	0x3ab867c7	0.0014069014
50	0x3c39e31a	0.011345649
51	0x3d85652a	0.06513436
52	0x3d0f9480	0.03505373
53	0x3b90777d	0.0044087754
54	0xbd4840f6	-0.048890077
55	0x3d2662ed	0.040621687
56	0x3d8a9e70	0.06768501
57	0xbb9631bf	-0.004583567
58	0x3d2bf404	0.04198076
59	0x3d94db58	0.07268399
60	0x3d3a3643	0.045461904
61	0x3c9e7ed0	0.019347578
62	0xbcbb51f2	-0.022866223
63	0x3d01018f	0.031495627
64	0x3c9e1175	0.019295434
65	0xbb32b1c0	-0.0027266592
66	0xbd4661d7	-0.04843315
67	0xbc88caa6	-0.016698193
68	0x3d2ba0e9	0.041901503
69	0xbbc6abc2	-0.0060629556
70	0x3d1377d2	0.03600294
71	0xbd01d50b	-0.031697314
72	0x3b90a4ce	0.0044141775
73	0xbccee52b	-0.02525576
74	0x3cdeb6ba	0.02718674
75	0x3d0bfa61	0.034174327
76	0xbd0207b7	-0.03174564
77	0x3cacd892	0.021099363
78	0xba2d8742	-0.0006619581
79	0x3d8d32cd	0.06894455
80	0x3d3c672f	0.04599684
81	0xbc635b62	-0.013876768
82	0xbd27d106	-0.040970825
83	0x3d472250	0.048616707
84	0xbd48c027	-0.049011376
85	0x3d0a9e45	0.033842344
86	0xbc8884e3	-0.016664928
87	0xbd46df25	-0.04855265
88	0xbd83cdf0	-0.06435764
89	0x3d06ffe0	0.032958865
90	0x3d87dc9f	0.06633877
91	0xbd43c267	-0.04779282
92	0xbbe24e70	-0.006906323
93	0x3d22885b	0.03968082
94	0x3c869198	0.016426846
95	0x3d4aa21c	0.049471006
96	0xbc5dd7d8	-0.013540231
97	0x3b4f83ad	0.0031664178
98	0x3bbc58e6	0.005747902
99	0x3d782e18	0.060590833
100	0x3d4ce1b8	0.05001995
101	0x3d0ae5a3	0.033910405
102	0xbd11ab75	-0.035563905
103	0x3ccf871b	0.025332978
104	0x3d8fd08d	0.070222
105	0xbc376805	-0.011194234
106	0x3d3863ef	0.04501718
107	0x3d555d63	0.052091014
108	0xbc7970b8	-0.015224628
109	0x3ce6a91d	0.028156811
110	0xbd7b62e8	-0.06137362
111	0xbd692363	-0.056918513
112	0xbc8f7674	-0.017512538
113	0x3d36558a	0.04451517
114	0xbbfc0503	-0.007691027
115	0xbd419695	-0.047262747
116	0x3c8283e1	0.015932025
117	0x3ac03b31	0.0014666078
118	0xbca50deb	-0.020148238
119	0x3d6d8aab	0.057993572
120	0x3cabff7e	0.020995852
121	0xbd8a72ca	-0.067601755
122	0x3cfe98ab	0.031078657
123	0x3d8284ea	0.063730076
124	0xbcaccf7a	-0.021095026
125	0x3d5b1515	0.053486902
126	0x3d27292f	0.04081076
127	0x3d931ce4	0.07183245
128	0xbbd94fe7	-0.0066318396
129	0xbcb1a0b6	-0.021683078
130	0x3d6ad489	0.057331596
131	0x3d541397	0.051776495
132	0xbcc97c32	-0.024595354
133	0x3bfc8842	0.007706673
134	0x3d259e5e	0.040434234
135	0xbd27063d	-0.040777434
136	0x3d3f1eb4	0.04666014
137	0x3cbe6424	0.02324111
138	0x3c905cee	0.017622437
139	0x3d1bc8ce	0.0380333
140	0xbd622f29	-0.055220757
141	0xbd8481ac	-0.064700454
142	0x3cd39268	0.025826648
143	0xbac9cfe4	-0.0015397039
144	0xbc0c2fbe	-0.0085563045
145	0x3c04f553	0.0081151305
146	0xbd14d9d9	-0.03634057
147	0xbd6d5236	-0.05793973
148	0x3d43ae51	0.047773663
149	0x3d1e23a3	0.038608205
150	0xbd5194fe	-0.05116748
151	0x3d18bfbd	0.03729223
152	0x3d077b50	0.033076584
153	0xbd30418f	-0.04303127
154	0x3d78fe65	0.060789485
155	0xbdb4d7d1	-0.08830226
156	0x3d7c1de8	0.06155196
157	0xbcb6ef8e	-0.022331025
158	0x3d450d1c	0.048108205
159	0x3d8cfbda	0.068839744
160	0x3d3b6e2f	0.045759376
161	0x3d5f5f45	0.054534215
162	0x3d891cea	0.06694968
163	0xbca0c5e6	-0.019625615
164	0xbc6e7afd	-0.01455569
165	0x3d346283	0.04403926
166	0xbd6ef87b	-0.05834244
167	0xbd0c48d6	-0.03424915
168	0x3cf81edc	0.030288152
169	0x3c955364	0.01822824
170	0x3d1c0c51	0.038097683
171	0xbd457b2f	-0.04821318
172	0xbd04fbe7	-0.032466795
173	0xbd4cdce4	-0.050015345
174	0xbca23f37	-0.019805534
175	0x3caad36f	0.020852773
176	0xbd1ad5a1	-0.03780139
177	0x3d052b23	0.03251184
178	0x3cbddc0a	0.023176212
179	0x3c163daf	0.00916998
180	0xbcb9977b	-0.02265524
181	0x3d8204c7	0.063485675
182	0xba24f789	-0.0006292989
183	0xbd10dc9c	-0.03536664
184	0xbd2e0cdf	-0.042492744
185	0xbca33e79	-0.01992725
186	0x3d7287c9	0.059211526
187	0x3b574207	0.0032845752
188	0x3d3c9f30	0.04605025
189	0x3d6f7d75	0.058469255
190	0x3d765290	0.06013733
191	0xbd92321d	-0.071384646
192	0x3cb61924	0.022228785
193	0x3d0c3c3d	0.034237135
194	0x3ca8253a	0.020525564
195	0xbcb849bc	-0.022496097
196	0x3d1487ae	0.036262207
197	0xbd9f4236	-0.077763006
198	0x3ce8af61	0.02840394
199	0xbc915618	-0.017741248
200	0xbd82b942	-0.063829914
201	0x3cd72f6d	0.026267732
202	0x3d98e4d7	0.07465523
203	0xbc8cbe5c	-0.017180614
204	0xbd2f31fb	-0.042772274
205	0x3d7fdbba	0.062465407
206	0x3c97c165	0.018524835
207	0xbcc37962	-0.02386159
208	0x3d9caa29	0.07649643
209	0xbd96f421	-0.07370783
210	0xbc2e8650	-0.01065214
211	0x3da5ca6e	0.08095251
212	0xbd13d99a	-0.036096193
213	0xba6ff8d0	-0.00091542024
214	0xbd253575	-0.040334184
215	0xbd906ffd	-0.0705261
216	0x3d42e29a	0.047579385
217	0xbd814650	-0.06312239
218	0xba74350d	-0.00093157665
219	0xbd42346b	-0.04741327
220	0xbd4f8881	-0.05066729
221	0x3d45a17f	0.048249718
222	0xbca47b02	-0.020078186
223	0x3d2320e2	0.03982628
224	0xbd9a7aa1	-0.07542921
225	0xbc126d4e	-0.008937193
226	0x3cdaf2e4	0.026727147
227	0x3d69ea7d	0.05710839
228	0x3d546ef8	0.05186364
229	0x3b57296a	0.0032831081
230	0x3c37186d	0.011175257
231	0xbd1fe67c	-0.039038166
232	0xbd6f5dac	-0.05843894
233	0xbdaa4cad	-0.08315406
234	0xbd874d68	-0.06606561
235	0x3d17bc02	0.037044533
236	0xbdad1f32	-0.08453216
237	0xbcc0ab03	-0.023519045
238	0xbd39faee	-0.04540532
239	0xbda37a04	-0.07982257
240	0x3cb1bf63	0.021697706
241	0xbd3bc218	-0.0458394
242	0x3d104bfb	0.03522871
243	0xbd50c25f	-0.050966617
244	0xbd82d167	-0.063875966
245	0xbd511e7f	-0.051054474
246	0x3d7b4634	0.061346248
247	0xbd56b193	-0.05241544
248	0xbd8e6d68	-0.06954461
249	0x3d1f3009	0.03886417
250	0xbd31b0e8	-0.0433816
251	0x3cf281a9	0.029602842
252	0x3d83bfe5	0.06433085
253	0x3d88fc54	0.06688753
254	0xbd976532	-0.07392348
255	0xbd24e812	-0.040260382

features.0.bias f4 [30]
0	0xbca7ea3a	-0.02049743
1	0x3d72b619	0.059255693
2	0xbd59d91d	-0.05318557
3	0x3c004612	0.007829206
4	0xbd2816d3	-0.041037392
5	0x3ced7785	0.028987655
6	0x3d70962f	0.058736976
7	0x3c84994e	0.016186383
8	0xbd8f28da	-0.06990214
9	0x389642fa	7.165033e-05
10	0x3d5a658a	0.05331949
11	0x3ac1ac65	0.0014776109
12	0x3d0c3ad1	0.03423578
13	0xbd73fb68	-0.05956593
14	0x3c81d984	0.01585079
15	0xbd1e5e5d	-0.03866421
16	0xbd5347bd	-0.051582087
17	0xbd7ecbb9	-0.062206004
18	0x3bacba02	0.0052711973
19	0xbd8675f1	-0.06565464
20	0x3c763641	0.015027584
21	0x3d220971	0.039559785
22	0xbc8f1543	-0.017466193
23	0xbd8d9567	-0.06913262
24	0x3cce933d	0.025216693
25	0xbd29eb12	-0.041483946
26	0x3cc5665c	0.02409666
27	0xbd39c45d	-0.045353282
28	0xbd55d29d	-0.05220281
29	0x3d05cad8	0.03266415

features.2.weight f4 [30, 30]
0	0xbd4c16bf	-0.04982638
1	0x3c7aab12	0.015299575
2	0x3dc8fabc	0.09813449
3	0x3e31f8ab	0.17380016
4	0x3c08cccf	0.008349611
5	0xbe00d1ad	-0.12579985
6	0x3e02aca2	0.12761167
7	0xbe1f99d3	-0.15586023
8	0xbc8a62e9	-0.016892867
9	0x3d198e83	0.037489425
10	0x3e207ec8	0.15673363
11	0xbdf5a499	-0.11994285
12	0x3e0ad8fc	0.13559335
13	0xbd034ee0	-0.032057643
14	0x3e33219a	0.17493287
15	0x3d0a296a	0.0337309
16	0xbdbecdcf	-0.093165986
17	0x3e0eeda0	0.13957834
18	0x3c731d94	0.014838595
19	0xbddfef9e	-0.10934375
20	0x3e4e1fa1	0.20129253
21	0x3e37e368	0.17957842
22	0x3e2249c7	0.15848456
23	0x3e129619	0.1431507
24	0xbde44c3a	-0.111473516
25	0x3e054bd1	0.13017203
26	0x3d81e819	0.06343097
27	0x3e3eabd8	0.1862024
28	0xbd492b57	-0.049113598
29	0x3d201eef	0.039092
30	0x3ded8b39	0.1159882
31	0xbd61c9a7	-0.05512395
32	0x3e0be5c2	0.13661864
33	0x3cec5038	0.028846845
34	0x3e255cb2	0.16148642
35	0xbd1b2ca6	-0.037884377
36	0x3e27e770	0.1639688
37	0xbd96b68e	-0.07359038
38	0xbd91ea44	-0.07124761
39	0xbe3fef5e	-0.18743655
40	0xbdeb4c20	-0.11489129
41	0x3db71471	0.08939446
42	0xbe2f30a6	-0.17108402
43	0x3b7fada2	0.0039013405
44	0x3d300bcd	0.042980004
45	0x3e10dda0	0.14147043
46	0x3dbe708a	0.09298809
47	0xbc44b790	-0.012006655
48	0x3e3d9ce5	0.18516882
49	0x3ceeff62	0.02917451
50	0x3d6006f1	0.05469412
51	0x3dd20a50	0.10255873
52	0xbe0a72e9	-0.13520397
53	0x3e13d6b7	0.14437376
54	0x3bdc3333	0.0067199706
55	0xbe048758	-0.12942255
56	0xbe0bb268	-0.13642275
57	0x3dc83426	0.097755715
58	0xbcd2bfba	-0.025726188
59	0xbdf829b8	-0.12117332
60	0xbc9665e9	-0.018359141
61	0xbcd7756b	-0.026301106
62	0x3d83eb79	0.06441397
63	0x3db024f7	0.086008005
64	0x3be3ed53	0.0069557815
65	0x3de41f91	0.11138833
66	0x3c7f8263	0.015595051
67	0x3c936ed3	0.017997181
68	0x3dec0424	0.11524227
69	0xbe071384	-0.13191038
70	0x3dc2f5d1	0.09519542
71	0xbe3ce286	-0.18445787
72	0xbded0d5b	-0.11574813
73	0x3e11fa6c	0.14255685
74	0xbc10c004	-0.008834843
75	0x3e206b0f	0.1566584
76	0x3e3598a5	0.1773401
77	0x396d62b3	0.0002263885
78	0xbd20b9e7	-0.03923979
79	0x3d9033f9	0.07041163
80	0x3d9183b8	0.071052015
81	0x3d038304	0.032107368
82	0x3b5533d1	0.0032532106
83	0x3dc5e097	0.09661978
84	0x3cf975ec	0.030451737
85	0x3c1caad9	0.009562218
86	0x3be776cf	0.0070637236
87	0x3d48c472	0.04901547
88	0xbd8eb7f9	-0.06968684
89	0xbcafe089	-0.021469371
90	0xbe09a922	-0.13443425
91	0x3d6c34dd	0.0576676
92	0xbe1c779c	-0.15280002
93	0xbdac6421	-0.084175356
94	0x3ce12ba7	0.027486635
95	0xbe2cf90a	-0.16891876
96	0xbc869b00	-0.016431332
97	0x3e1fddb8	0.15611923
98	0xbbd26f3a	-0.0064219506
99	0xbd8ea17e	-0.06964396
100	0x3ddfffa5	0.10937432
101	0x3d990447	0.07471519
102	0x3e077e3e	0.13231751
103	0x3d5df094	0.05418451
104	0x3d92d632	0.07169761
105	0x3ddfc8fc	0.109270066
106	0xbdf0a6ae	-0.117505416
107	0xbe10d5d0	-0.14144063
108	0x3e17c13c	0.14819807
109	0x3d75f45c	0.060047492
110	0xbd2dbc89	-0.04241613
111	0xbde4d724	-0.11173847
112	0xbdf2c77d	-0.118544556
113	0xbe042d70	-0.12907958
114	0xbceffc2a	-0.029295046
115	0x3da95947	0.082689814
116	0x3d447f41	0.04797292
117	0x3d96e9af	0.0736879
118	0x3d927179	0.071505494
119	0xbdbad766	-0.09123115
120	0xbe0126a8	-0.12612402
121	0xbdd612ae	-0.104527816
122	0xbd126ccd	-0.03574829
123	0x3de38bc6	0.11110644
124	0xbdd46c76	-0.1037225
125	0xbdf9519d	-0.121737696
126	0xbdd623c0	-0.104560375
127	0x3e0b97a0	0.13632059
128	0x3e1db798	0.15402067
129	0x3c3bd857	0.011465154
130	0x3d2b782e	0.04186266
131	0xb9ec4572	-0.00045065169
132	0x3d8f5114	0.06997886
133	0x3d091234	0.033464625
134	0x3d70802c	0.058715984
135	0xbd7dc368	-0.061953932
136	0xbd91cfa5	-0.07119683
137	0x3df67c53	0.12035432
138	0xbdc92dde	-0.098232016
139	0x3e2a2bec	0.16618317
140	0x3c99c64e	0.018771317
141	0xbddc6580	-0.10761547
142	0x3c8564c6	0.016283404
143	0x3dc17425	0.09445981
144	0xbdf8edd8	-0.1215474
145	0xbd7f9234	-0.06239529
146	0xbd6323a2	-0.055453904
147	0xbe269f02	-0.16271594
148	0xbd65814f	-0.05603152
149	0x3d87b137	0.06625598
150	0xbe34a9eb	-0.17642944
151	0xbe248ba8	-0.160689
152	0xbdf80a4f	-0.12111341
153	0x3daec818	0.085342586
154	0x3d7052f5	0.058672864
155	0xbbe95521	-0.007120744
156	0xbdba89c5	-0.09108309
157	0xbe08ff95	-0.13378747
158	0xbe33cfef	-0.17559789
159	0x3d0f5bca	0.034999646
160	0x3cfbfce0	0.030760229
161	0xbd2479dc	-0.040155277
162	0xbd935066	-0.07193069
163	0x3d228a5e	0.03968274
164	0x3c8bf259	0.017083334
165	0xbd5408e2	-0.051766284
166	0xbdeee256	-0.11664264
167	0x3d4634e8	0.0483903
168	0xbcbe6f5b	-0.023246458
169	0x3d38f223	0.045152795
170	0x3ca0ec9c	0.019644074
171	0x3d76dfe3	0.06027211
172	0xbe4a3921	-0.19748355
173	0x3bacea74	0.0052769724
174	0xbd97764e	-0.07395612
175	0xbe05d0c5	-0.1306792
176	0xbdc91599	-0.098185726
177	0xbd67d591	-0.056600157
178	0x3cbd873d	0.023135776
179	0x3cc2c762	0.023776714
180	0x3e166767	0.14687882
181	0xbd89501f	-0.06704735
182	0xbbf983e6	-0.0076146005
183	0x3dde6ade	0.10860227
184	0x3de29dd0	0.110652566
185	0xbd9c2341	-0.07623912
186	0x3daee871	0.085404284
187	0xbd5ae8d1	-0.053444687
188	0xbe15c482	-0.14625743
189	0xbe03f479	-0.12886228
190	0x3e0b56f6	0.13607392
191	0xbd64ac0a	-0.05582813
192	0xbc27375f	-0.010206073
193	0x3d78b31d	0.06071769
194	0x3d750691	0.059820715
195	0xbd417abe	-0.047236197
196	0x3cb937e3	0.022609657
197	0xbbcfb556	-0.0063387556
198	0x3ddf40f9	0.109010644
199	0xbb1e7481	-0.0024178328
200	0xbdccb5b6	-0.09995596
201	0xbcace8ca	-0.021107096
202	0xbdd94ed6	-0.1061074
203	0x3e219d46	0.15782651
204	0x3d639650	0.05556327
205	0x3daa4cf9	0.083154626
206	0x3d649b85	0.055812377
207	0xbe116f3e	-0.14202592
208	0xbe1d1cbe	-0.15342996
209	0x3e0ea60f	0.13930534
210	0x3d6dc52a	0.05804936
211	0xbda82427	-0.082100205
212	0xbd8dabf2	-0.069175616
213	0x3d74956d	0.059712816
214	0xbde4a290	-0.11163819
215	0xbdc3d201	-0.095615394
216	0xbdec081f	-0.115249865
217	0x3dedfecf	0.116208665
218	0xbdb9fccf	-0.090814225
219	0xbc9b3815	-0.01894764
220	0x3d8e9e0a	0.06963737
221	0x3e048105	0.12939842
222	0x3e309d3a	0.17247477
223	0xbe2f5b04	-0.17124563
224	0x3dc620cf	0.096742265
225	0xbdf0ca58	-0.11757344
226	0xbdafd018	-0.085846126
227	0xbe29beb3	-0.16576652
228	0x3bb48afb	0.005509732
229	0xbd95bc53	-0.073113106
230	0x3e3496ce	0.17635652
231	0xbe0193eb	-0.12654082
232	0x3de1875c	0.11012146
233	0xbe0aed91	-0.13567187
234	0x3e33ce06	0.1755906
235	0x3cf83413	0.030298268
236	0xbdeec901	-0.11659432
237	0x3e005f9e	0.12536475
238	0xbdedb8eb	-0.11607536
239	0xbdfe0dd8	-0.12404984
240	0x3de72178	0.112856805
241	0xbe55e34d	-0.2088749
242	0xbe2e0ef6	-0.16997895
243	0xbdee1c60	-0.11626506
244	0x3ddc8058	0.10766667
245	0xbd841706	-0.06449704
246	0x3d1459d2	0.03621847
247	0xbe457551	-0.19283034
248	0xbd8e65e4	-0.06953028
249	0xbd713daf	-0.058896717
250	0x3d635746	0.055503152
251	0xbd14c3fb	-0.036319714
252	0x3d836570	0.06415832
253	0xbe171727	-0.14754926
254	0xbd02a4dd	-0.031895507
255	0xbe2874c9	-0.164508

features.2.bias f4 [30]
0	0xbe2c6397	-0.16834866
1	0xbddbe8a7	-0.10737734
2	0x3e10b9b9	0.14133348
3	0x3c7a4006	0.015274053
4	0x3d55aa84	0.05216457
5	0x3d285115	0.04109295
6	0x3e00e4bc	0.12587255
7	0x3de1b504	0.11020854
8	0xbccd7926	-0.025082182
9	0xbe175e63	-0.147821
10	0x3e2bfa29	0.16794647
11	0xbcde9557	-0.02717082
12	0x3e221613	0.15828733
13	0x3c088c83	0.008334282
14	0xbd868009	-0.065673895
15	0xbe155bc4	-0.14585787
16	0x3db30a50	0.08742201
17	0xbdfa75a9	-0.12229473
18	0xbdd08531	-0.10181654
19	0xbe229366	-0.1587654
20	0x3def8ef8	0.11697191
21	0x3e057154	0.13031512
22	0xbe1ea5f0	-0.15492988
23	0xbd673c40	-0.056453943
24	0x3d26af62	0.0406946
25	0xbe048800	-0.12942505
26	0x3dd926cd	0.10603104
27	0x3dd62e68	0.1045807
28	0xbb04fd50	-0.0020292588
29	0xbded3a15	-0.11583344

features.4.weight f4 [11, 30]
0	0xbe43c0eb	-0.19116561
1	0x3c938a0a	0.018010158
2	0xbe240fbc	-0.16021627
3	0xbcbc497a	-0.022984255
4	0xbe34dff3	-0.17663555
5	0xbe0de1a1	-0.13855602
6	0x3c9e82ed	0.01934954
7	0x3d37693e	0.0447781
8	0xbe09f987	-0.13474093
9	0xbe4809ca	-0.19534984
10	0x3d51d6f4	0.051230386
11	0xbe424b1d	-0.18973966
12	0xbe0a9a9f	-0.13535546
13	0xbdd23548	-0.10264069
14	0xbe3ef9fc	-0.18650049
15	0xbdb364fc	-0.087594956
16	0x3d0b85a4	0.034062997
17	0xbe9d676a	-0.3074296
18	0xbb7819d2	-0.0037857187
19	0xbe989776	-0.29803056
20	0x3d2a8e0a	0.041639365
21	0x3e162246	0.14661512
22	0xbd947417	-0.07248705
23	0x3c520746	0.012819117
24	0x3d01bada	0.031672336
25	0x3ca1396f	0.019680707
26	0x3d27cd6a	0.040967382
27	0xbdac4b63	-0.084128164
28	0xbe427e57	-0.18993507
29	0xbd4526cb	-0.0481327
30	0xbd8c0258	-0.068363845
31	0x3d8228a0	0.06355405
32	0xbe1e53a1	-0.1546159
33	0xbcdadf55	-0.026717821
34	0xbd0122c5	-0.0315273
35	0x3b5ed2a0	0.0034000054
36	0xbe13f08e	-0.14447233
37	0xbde219ca	-0.11040075
38	0xbe2e3758	-0.170133
39	0xbc917923	-0.017757958
40	0x3dafbc37	0.08580821
41	0xbe42aff0	-0.19012427
42	0xbe6cb023	-0.23114066
43	0xbe36bdc5	-0.17845829
44	0x3aa65a1b	0.0012691648
45	0xbcf836e4	-0.030299611
46	0x3cd4cc01	0.025976183
47	0xbe3c8372	-0.18409517
48	0xbd763d2a	-0.060116924
49	0xbd125eba	-0.03573487
50	0xbdb5b8ae	-0.088731155
51	0x3def372e	0.116804466
52	0xbe17c28a	-0.14820305
53	0xbded0d3c	-0.1157479
54	0x3cc73589	0.02431752
55	0xbdbf9e64	-0.093563825
56	0x3e3942f3	0.18091945
57	0x3d0dda1e	0.03463184
58	0xbe17b232	-0.1481407
59	0xbe495e18	-0.196648
60	0xbdb41c4d	-0.087944604
61	0xbd8e243c	-0.06940505
62	0xbe577e0a	-0.21044174
63	0xbe521ebc	-0.20519537
64	0xbdf359bc	-0.1188235
65	0xbd6d2fde	-0.057906978
66	0xbda1d76a	-0.07902415
67	0x3dd5f3a4	0.104468614
68	0xbe02c3eb	-0.1277005
69	0xbe1d8a78	-0.15384853
70	0xbd9098e2	-0.0706041
71	0xbe4a6f75	-0.1976908
72	0x3d099190	0.033586085
73	0x3da7ad0e	0.081873044
74	0x3dd1d22e	0.10245167
75	0xbd33a27b	-0.043856125
76	0xbe07d48c	-0.13264674
77	0xbe44f1ac	-0.19232816
78	0x3cc23469	0.023706632
79	0x3dddf51c	0.108377665
80	0xbb2791f4	-0.0025569173
81	0x3dedd0b7	0.11612075
82	0xbd9871c1	-0.07443572
83	0x3d838ae7	0.06422978
84	0x3cf50b6b	0.029912671
85	0xbc93c89a	-0.01803999
86	0x3cb63363	0.0222413
87	0xbcb5621b	-0.022141507
88	0x3dd37153	0.10324349
89	0x3d0ed6b1	0.034872714
90	0xbe2da6a6	-0.16958103
91	0xbca5373e	-0.020167943
92	0xbd9b37d3	-0.07579007
93	0xbe3781f9	-0.17920674
94	0x3d8e962a	0.06962235
95	0x3da2f6aa	0.07957204
96	0x3d66345b	0.056202274
97	0x3dfbbf38	0.122923315
98	0xbe092576	-0.13393196
99	0xbd6f7e00	-0.058469772
100	0x3e236e48	0.15960038
101	0xbe2cb606	-0.16866311
102	0xbe6fc835	-0.23416217
103	0x3d3942cf	0.04522973
104	0xbe3f4f1c	-0.18682522
105	0x3cd7f386	0.026361238
106	0xbd85f345	-0.065405406
107	0xbded6320	-0.11591172
108	0xbd51e084	-0.051239505
109	0xbdeedc36	-0.11663096
110	0xbd607ba4	-0.054805413
111	0xbe2bd73e	-0.16781327
112	0xbe8632e3	-0.26210698
113	0xbd5d2192	-0.053987093
114	0xbe00c2c8	-0.12574303
115	0xbd93253a	-0.07184835
116	0xbe2c1677	-0.16805445
117	0xbe92344f	-0.28555533
118	0x3d4c70f2	0.0499124
119	0x3db53ead	0.08849845
120	0xbe2d9487	-0.1695119
121	0xbdcf4425	-0.101204194
122	0x3c41169e	0.0117851775
123	0xbda378d1	-0.07982028
124	0x3d5bce4e	0.053663544
125	0x3e002a0e	0.12516043
126	0xbde03629	-0.1094783
127	0xbd9554e2	-0.07291581
128	0xbce5cd6c	-0.028052054
129	0xbdc077ec	-0.09397873
130	0xbd112117	-0.035431948
131	0x3d50ccf1	0.050976697
132	0xbd9143af	-0.07092988
133	0xbcd6c297	-0.026215835
134	0xbdbd61cc	-0.09247169
135	0x3d02b2a1	0.031908635
136	0x3d794baa	0.060863174
137	0xbe26d40b	-0.16291825
138	0xbe0598d9	-0.13046588
139	0xbdab7c02	-0.08373262
140	0x3dcb1707	0.099165015
141	0x3d4e1dc9	0.050321374
142	0xbdbce89a	-0.09224053
143	0xbdc46c23	-0.09590938
144	0xbe4076f5	-0.18795379
145	0xbe02084c	-0.12698478
146	0xbe37f750	-0.17965436
147	0xbe2cf9fa	-0.16892233
148	0xbe00ad58	-0.12566125
149	0xbdaf5835	-0.08561746
150	0xbe491b05	-0.19639213
151	0xbe4fbabb	-0.20286076
152	0x3db38d41	0.087671764
153	0xbe4f79ea	-0.2026135
154	0xbcad362d	-0.021143997
155	0x3d97a2e1	0.074041136
156	0xbe103cef	-0.14085744
157	0xbd4e5178	-0.050370663
158	0x3cb2b2a0	0.02181369
159	0x3df019b8	0.117236555
160	0x3d859813	0.065231465
161	0xbe11540d	-0.14192219
162	0xbd7ba94f	-0.061440762
163	0xbe16d391	-0.14729144
164	0xbe4f2da5	-0.20232256
165	0x3d491aa9	0.04909769
166	0xbc8eea99	-0.01744585
167	0xbdaf612c	-0.08563456
168	0xbc6653ac	-0.014058035
169	0xbdd41163	-0.10354879
170	0x3d5648c1	0.052315477
171	0x3d17a7f3	0.037025403
172	0xbd4ba5e6	-0.04971876
173	0x3cee4600	0.029086113
174	0xbdfb99e9	-0.122852154
175	0x3c45b549	0.0120671475
176	0x3da54d4d	0.080713846
177	0xbe07fccf	-0.13280033
178	0xbe3c7c0e	-0.18406698
179	0x3d602df6	0.05473133
180	0xbe0eff15	-0.13964494
181	0xbd830cb6	-0.06398909
182	0xbe3dd793	-0.18539266
183	0xbe17fdcd	-0.14842911
184	0x3dd7c173	0.105349444
185	0x3e1286ec	0.14309281
186	0xbe1a8bf0	-0.15092444
187	0xbd60200e	-0.05471807
188	0xbe0d83e9	-0.13819851
189	0xbe0e5ece	-0.13903353
190	0x3de453dc	0.111488074
191	0x3d787c50	0.06066543
192	0xbc6022ba	-0.013680154
193	0xbdb88351	-0.090094216
194	0x3d0a6350	0.033786118
195	0x3b3b7c0f	0.002860788
196	0x3d002583	0.031285774
197	0xbd9b63ca	-0.07587393
198	0xbe361647	-0.17781936
199	0xbe5efa4a	-0.21775165
200	0x3d746f66	0.05967655
201	0xbde6fb39	-0.11278386
202	0xbe43730d	-0.19086857
203	0x3c6f0586	0.014588719
204	0x3da16a2c	0.07881579
205	0xbdbc4e34	-0.091946036
206	0xbdc660ba	-0.09686418
207	0xbe35c11c	-0.17749447
208	0xbc200e83	-0.009769085
209	0x3ca1cd3f	0.01975119
210	0xbe148153	-0.14502458
211	0xbdd37100	-0.103242874
212	0xbe287676	-0.1645144
213	0xbddfb014	-0.10922256
214	0x3df120d9	0.11773843
215	0x3d2dc2d3	0.042422127
216	0x3d3e3699	0.046438787
217	0xbdd750b2	-0.10513438
218	0xbd1d4854	-0.038399056
219	0xbdaacab9	-0.083394475
220	0x3ddd68fc	0.1081104
221	0xbd6f5e85	-0.05843975
222	0x3df14b57	0.11781948
223	0xbd8b0095	-0.067872204
224	0xbe37ae44	-0.17937571
225	0x3cac4ed5	0.021033684
226	0xbd18daf5	-0.03731819
227	0xbe2bfb90	-0.16795182
228	0x3ccdc266	0.02511711
229	0x3e135d59	0.14391078
230	0xbdb9d00a	-0.090728834
231	0x3e111ac9	0.14170374
232	0xbd8e5ea0	-0.06951642
233	0x3d36978f	0.04457813
234	0xbd8e3b78	-0.069449365
235	0xbd59a128	-0.053132206
236	0xbe0db245	-0.13837536
237	0x3dfbe5e9	0.12299711
238	0x3dbad568	0.09122735
239	0xbdc94f88	-0.098296225
240	0xbd9d2712	-0.07673468
241	0xbe5285c6	-0.20558843
242	0xbe16f5d5	-0.14742215
243	0x3d8e1405	0.06937412
244	0xb9191cc6	-0.00014601936
245	0x3dc76d92	0.09737696
246	0xbd7c4e34	-0.061598018
247	0xbb43fed1	-0.002990652
248	0x3c3c1f03	0.011482003
249	0xbe024f94	-0.12725669
250	0xbc726bde	-0.014796225
251	0xbd83c6e3	-0.06434419
252	0xbd88378b	-0.06651219
253	0xbe42e901	-0.19034196
254	0xbdb4326d	-0.087986805
255	0x3d98ee1c	0.07467291

features.4.bias f4 [11]
0	0xba7156a5	-0.00092063315
1	0x3e3112e5	0.17292364
2	0xbe257457	-0.16157661
3	0xbd8c295e	-0.06843828
4	0x3d6767a0	0.05649531
5	0xbd88168f	-0.06644928
6	0xbe01eb9a	-0.12687531
7	0xbdda8f85	-0.106719054
8	0xbe22efaf	-0.15911745
9	0x3d905313	0.07047095
10	0x3e28afbc	0.16473287

classifier.1.weight f4 [11, 11]
0	0x3de3592c	0.111009926
1	0xbd4f0f73	-0.050551843
2	0xbe809240	-0.2511158
3	0xbe7bc3c5	-0.24586399
4	0xbd2fa281	-0.042879585
5	0x3d0915ec	0.033468172
6	0xbdd198a9	-0.10234196
7	0x3e88250e	0.2659077
8	0x3d98a6c6	0.074536845
9	0x3d0bc700	0.034125328
10	0x3e401599	0.18758239
11	0xbd97338b	-0.07382878
12	0x3d859822	0.06523158
13	0xbd570ac0	-0.052500486
14	0x3dceda3c	0.10100219
15	0x3e367514	0.178181
16	0xbd42c4ba	-0.047550894
17	0x3e591a13	0.21201353
18	0x3d633531	0.05547065
19	0xbde85f12	-0.11346258
20	0x3e7620c6	0.2403594
21	0xbe039b67	-0.1285225
22	0xbe6afc7c	-0.22947878
23	0x3da9471f	0.082655184
24	0xbe173559	-0.14766444
25	0xbce36e6b	-0.027762612
26	0xbd73b7db	-0.05950151
27	0xbd8dbc4f	-0.06920683
28	0xbe0b5f65	-0.13610609
29	0x3e618265	0.22022398
30	0x3dcf2a82	0.101155296
31	0x3db78cc5	0.089623965
32	0x3e0ed489	0.13948263
33	0xbe83f873	-0.2577549
34	0xbca9a36f	-0.020707814
35	0x3d69e46b	0.057102602
36	0x3e130347	0.14356719
37	0xbe265805	-0.16244514
38	0x3d0dc48b	0.034611266
39	0xbdd92562	-0.10602833
40	0xbe5f1a75	-0.21787436
41	0xbe86039a	-0.26174623
42	0x3db2c43f	0.08728837
43	0xbe101e57	-0.14074074
44	0x3d844b7e	0.064597115
45	0x3d595d03	0.05306722
46	0xbd0e6205	-0.034761447
47	0xbe33e34b	-0.17567174
48	0xbdb74938	-0.08949512
49	0x3e6a543f	0.228837
50	0xbe7f169b	-0.24910967
51	0x3e063175	0.13104804
52	0x3db86445	0.090035
53	0xbe4aaa20	-0.1979146
54	0x3e35d65e	0.17757556
55	0xbe4924f1	-0.19642998
56	0xbe5ea281	-0.21741678
57	0xbe32e8eb	-0.17471664
58	0x3e85edd7	0.2615802
59	0xbcc86d32	-0.02446613
60	0x3e4fec3d	0.20304962
61	0xbd140afb	-0.036143284
62	0x3cbb4f66	0.022865009
63	0xbdbcad88	-0.09212786
64	0x3dfbef4a	0.123015
65	0x3d34ffb4	0.04418917
66	0x3d79c192	0.06097562
67	0x3dc4a832	0.09602393
68	0x3e5979a5	0.2123781
69	0xbdcd4528	-0.10022956
70	0x3d8f6e34	0.070034415
71	0x3e2c7225	0.16840418
72	0x3e424216	0.18970522
73	0x3c492dee	0.012279017
74	0xbd4e1b5e	-0.050319068
75	0x3e1f1ac4	0.15537554
76	0x3d75624c	0.059908196
77	0x3b8074ba	0.003920165
78	0xbe123449	-0.14277758
79	0xbe624f03	-0.22100453
80	0x3ddf1907	0.108934455
81	0xbe1209b6	-0.14261517
82	0x3e14de1c	0.14537853
83	0xbe91f4d2	-0.28507096
84	0xbdfd8200	-0.12378311
85	0x3dd07442	0.101784244
86	0xbdf82a64	-0.1211746
87	0x3e8c2e22	0.27378947
88	0x3cc97e63	0.024596399
89	0xbd1ebdda	-0.038755275
90	0xbe64d0bc	-0.22345251
91	0x3debe50e	0.11518298
92	0xbe1bc39c	-0.15211338
93	0x3d9e0789	0.07716281
94	0x3d6bea4e	0.057596497
95	0x3d15134c	0.036395356
96	0x3e36aadc	0.17838615
97	0x3e117a56	0.14206824
98	0x3e1501a6	0.1455141
99	0xbcf77c99	-0.03021078
100	0xbc3c17b1	-0.011480258
101	0x3dd34d2e	0.10317455
102	0x3d8c478e	0.068495855
103	0x3d670581	0.056401733
104	0x3cdd14d3	0.026987469
105	0xbe7d39e3	-0.24729113
106	0x3e290310	0.16505075
107	0x3e40907d	0.18805118
108	0x3e5aae0c	0.21355456
109	0xba2fb76c	-0.0006703052
110	0xbd59a648	-0.053137094
111	0x3cfd3fa4	0.030914135
112	0xbca6963f	-0.020335315
113	0xbdf1ba1c	-0.11803076
114	0x3e226b87	0.15861331
115	0x3c657988	0.014006026
116	0x3e7a542e	0.24446175
117	0xbe8d77ae	-0.2763037
118	0xbd43f638	-0.047842234
119	0x3e83853d	0.2568759
120	0x3e01078a	0.12600532

classifier.1.bias f4 [11]
0	0xbd1ebb85	-0.03875305
1	0x3cab46ba	0.020907748
2	0xbe2ff033	-0.17181472
3	0x3dd49c3d	0.103813626
4	0x3e7be8d8	0.24600542
5	0xbe0f0ce7	-0.13969766
6	0xbdbfbc07	-0.09362035
7	0xbca55ade	-0.02018493
8	0x3e1c74a6	0.15278873
9	0xbdaf6e0e	-0.08565913
10	0xbd963738	-0.07334751
