pyopencl/torch_mnist_model.pt (torch, 103311 bytes, 8 tensors)

weight f4 [30, 784]
-0.027946267 -0.00072870514 0.0061060023 -0.039235756 -0.05201511 -0.039914817 -0.040632084 0.007603406
-0.053274035 -0.009674062 -0.0389926 -0.04079315 -0.017296169 0.011195368 -0.016830407 0.013990148
-0.035431586 -0.00013515132 -0.027339488 -0.0023113785 -0.027893532 -0.037493892 -0.006551992 -0.05303693
-0.008805327 -0.033413313 -0.014658968 -0.041029394 -0.026593603 -0.009187438 -0.05028955 0.009140058
-0.01912839 -0.030003864 -0.021312647 0.0003066496 0.0012209543 0.004634397 -0.04307771 -0.056804664
-0.033694502 -0.051896993 -0.010625499 -0.043133367 0.0061027855 -0.03584048 0.0039153104 -0.04537218
0.0059996964 -0.03644564 -0.05139684 -0.002844578 -0.031540193 -0.039241485 -0.032422375 -0.05094938
-0.041341342 -0.017431647 -0.00511496 0.0022720185 -0.024184361 0.007702446 -0.011687043 -0.05582501
-0.026455056 -0.053884853 -0.017603949 -0.051633663 -0.048949804 -0.055893574 -0.069457635 -0.023404181
-0.06311034 -0.05526697 -0.020604488 -0.030831452 -0.014477352 -0.046336595 0.006073582 -0.05528022
-0.0029624414 -0.04276052 0.008226046 -0.005319628 -0.012584495 -0.008171697 0.012306034 -0.053459138
-0.056407515 -0.0030193417 0.0104283355 -0.036778502 0.030814664 0.0034274484 0.018809933 0.028044047
0.02515369 0.0037178406 0.032019764 0.009960185 -0.011130822 -0.12213846 -0.112758376 -0.011651097
-0.026673643 -0.01242967 -0.03429803 -0.023895765 -0.02138607 -0.02680831 -0.04484856 0.009681915
0.013521987 0.002552814 -0.022108642 -0.016483286 0.017992092 -0.013512285 0.040009983 0.043113578
0.081353016 0.08718832 0.08591456 0.11188669 0.0054628043 -0.034961317 -0.032168496 0.038770832
-0.020939935 -0.09187313 0.07036331 -0.045775495 -0.043230295 0.02048631 0.0066901413 -0.048658956
0.05365809 -0.018370098 0.016302127 -0.0033851785 -0.025434915 -0.0428003 -0.029892538 0.005751067
-0.02781333 0.07483828 0.051822565 0.067571625 0.05944315 0.05063383 0.14601777 0.10207458
0.07002716 -0.03211237 0.00584244 -0.040877227 -0.06137044 0.066227734 0.024677029 0.009486586
0.041552376 -0.03961059 -0.021655085 0.019803919 0.033717413 -0.0032508431 0.029574271 -0.00381613
-0.032208823 -0.028400246 -0.03880762 0.032035507 -0.0019121859 0.04659848 0.09911118 0.136894
0.15689455 0.10615703 0.14615443 0.11908826 0.088349186 0.06118429 0.029858401 0.08291878
0.03011519 0.14753607 0.073462784 0.062341563 0.02688907 -0.03955307 -0.03962589 -0.009581675
0.057043903 -0.0066379 0.007621726 -0.028019272 0.013864805 -0.0012780296 -0.0019002034 -0.004349466
0.0555134 0.091917545 0.09570239 0.14216377 0.15316549 0.09021978 0.14694239 0.14647403
0.09580456 0.14809181 0.2972873 0.19661145 0.2247483 0.114864044 0.13292347 0.06705403
0.11526512 0.021381186 -0.048933174 -0.018243495 -0.004973408 0.053807594 0.013836743 0.010786655
-0.0037913257 -0.03655415 0.0053642527 0.031415835 0.048940927 -0.018055571 0.0075035985 0.02357835
0.060793757 0.07287167 0.14320616 0.085992604 0.231457 0.25415316 0.25838506 0.27636418
0.17109849 -0.005411913 0.079696685 0.0125108175 0.081510186 0.06079375 0.030339152 -0.055149697
-0.025869232 0.04527481 -0.036858927 0.00021451131 -0.008112565 -0.040719002 0.004569464 -0.01161932
00000000: 92ef e4bc 9306 3fba dc14 c83b acb5 20bd
00000010: cc0d 55bd b87d 23bd d46d 26bd fe25 f93b
00000020: e035 5abd f57f 1ebc b4b6 1fbd b816 27bd
00000030: b2b0 8dbc c76c 373c ecdf 89bc ef36 653c
00000040: b620 11bd 68b7 0db9 10f7 dfbc 7f7a 17bb
00000050: fa80 e4bc 3293 19bd 18b2 d6bb 403d 59bd
00000060: 3844 10bc 66dc 08bd 2b2c 70bc 700e 28bd
00000070: d4da d9bc e886 16bc 6afc 4dbd 2fc0 153c
00000080: 24b3 9cbc aaca f5bc dc97 aebc d0c5 a039
00000090: 6e08 a03a 24dc 973b 4172 30bd 02ac 68bd
000000a0: 3f03 0abd f191 54bd 9316 2ebc 9dac 30bd
000000b0: e0f9 c73b 78cd 12bd 014c 803b 2ed8 39bd
000000c0: 1a99 c43b 0648 15bd 7e85 52bd 196c 3abb
000000d0: 4a30 01bd aebb 20bd 53cd 04bd 4cb0 50bd
000000e0: 8a55 29bd d0cc 8ebc 659b a7bb 25e6 143b
000000f0: 481e c6bc cd64 fc3b 037b 3fbc c4a8 64bd
00000100: 46b8 d8bc 5db6 5cbd 2836 90bc d27d 53bd
00000110: 977f 48bd a9f0 64bd ce3f 8ebd 20ba bfbc
00000120: fe3f 81bd 9e5f 62bd beca a8bc 3e92 fcbc
00000130: 6a32 6dbc 71cb 3dbd e604 c73b 836d 62bd
00000140: 8525 42bb a825 2fbd 8ac6 063c 4650 aebb
00000150: 332f 4ebc 95e2 05bc 3f9f 493c f8f7 5abd
00000160: 910b 67bd 26e0 45bb 9cdb 2a3c 0ea5 16bd
00000170: 096f fc3c 0b9f 603b 4a17 9a3c a1bc e53c
00000180: 1c0f ce3c 04a7 733b 2827 033d 0b30 233c
00000190: 0d5e 36bc bb23 fabd dded e6bd 3ee4 3ebc
000001a0: af82 dabc d1a5 4bbc 177c 0cbd 0dc1 c3bc
000001b0: d731 afbc 1a9d dbbc 20b3 37bd e5a0 1e3c
000001c0: 538b 5d3c 1d4d 273b 2f1d b5bc f507 87bc
000001d0: 2764 933c a262 5dbc 82e1 233d dd97 303d
000001e0: 699c a63d ca8f b23d f9f3 af3d d924 e53d
000001f0: 5301 b33b 9933 0fbd 1dc3 03bd 2ace 1e3d
00000200: 3a8a abbc fb27 bcbd a41a 903d 167f 3bbd
00000210: 4012 31bd e8d2 a73c f938 db3b 9d4e 47bd
00000220: 96c8 5b3d e37c 96bc 0a8c 853c dfd9 5dbb
00000230: e25c d0bc 5e4f 2fbd 32e1 f4bc 7273 bc3b
00000240: c8d8 e3bc d044 993d e643 543d fe62 8a3d
00000250: a97a 733d 6b65 4f3d af85 153e 7a0c d13d
00000260: 666a 8f3d 4388 03bd f071 bf3b e16e 27bd
00000270: 925f 7bbd 68a2 873d 7b27 ca3c a06d 1b3c
00000280: d332 2a3d b73e 22bd 0166 b1bc d43b a23c
00000290: 451b 0a3d 190c 55bb be45 f23c 0a18 7abb
000002a0: 66ed 03bd a2a7 e8bc bdf4 1ebd aa37 033d
000002b0: 50a2 faba 0cde 3e3d cdfa ca3d f12d 0c3e
000002c0: f7a8 203e db68 d93d 82a9 153e 8ce4 f33d
000002d0: 6bf0 b43d 619c 7a3d 9b99 f43c 52d1 a93d
000002e0: 22b4 f63c b213 173e a873 963d de59 7f3d
000002f0: 7846 dc3c 6602 22bd c24e 22bd 75fc 1cbc
00000300: dea6 693d be82 d9bb acbf f93b ac88 e5bc
00000310: 3529 633c 8f83 a7ba 3f10 f9ba f785 8ebb
00000320: 0562 633d 443f bc3d 9dff c33d 6193 113e
00000330: 6ad7 1c3e 26c5 b83d 1178 163e 4afd 153e
00000340: 2e35 c43d 61a5 173e 0a36 983e 8354 493e
00000350: 6b24 663e d73d eb3d 171d 083e a053 893d
00000360: 1f10 ec3d 9927 af3c 276e 48bd 6273 95bc
00000370: f8f7 a2bb 5a65 5c3d 82b3 623c 83ba 303c
00000380: e477 78bb ceb9 15bd 9dc6 af3b e4ad 003d
00000390: 4876 483d 47e9 93bc bfe0 f53b 6227 c13c
000003a0: e002 793d be3d 953d a3a4 123e e41c b03d
000003b0: 1003 6d3e 5d20 823e 0c4b 843e 9b7f 8d3e
000003c0: 7134 2f3e 6b56 b1bb 0438 a33d 2cfa 4c3c
000003d0: d0ee a63d de02 793d d089 f83c a6e4 61bd
000003e0: b6eb d3bc 1472 393d 63f9 16bd 71ee 6039
000003f0: 90ea 04bc f8c8 26bd 71bb 953b f65e 3ebc

bias f4 [30]
0.0037248116 -0.039309334 0.016462646 -0.01828113 -0.011468165 -0.027035935 -0.04470271 0.02540155
-0.0014371083 0.012065223 -0.01312719 -0.007882634 -0.022934781 0.038530193 -0.03571943 0.02747043
-0.041073572 -0.013529005 0.031265564 0.04026514 0.018770142 -0.031907182 0.024121854 -0.0014732782
-0.028590597 0.036471892 0.00247808 0.03406207 -0.002853291 0.023719156
00000000: f81b 743b d302 21bd acdc 863c 4fc2 95bc
00000010: f8e4 3bbc 777a ddbc 301a 37bd e916 d03c
00000020: 5a5d bcba 37ad 453c 6d13 57bc 2a26 01bc
00000030: b9e1 bbbc d6d1 1d3d 894e 12bd ab09 e13c
00000040: c33c 28bd c3a8 5dbc 5210 003d 0fed 243d
00000050: d7c3 993c 1bb1 02bd 329b c53c 031b c1ba
00000060: d436 eabc 8d63 153d 4967 223b ab84 0b3d
00000070: 48fe 3abb ad4e c23c

weight f4 [30, 30]
0.16222192 0.13266653 0.17968322 -0.13463005 -0.26569402 -0.16292478 -0.056123767 0.11317275
0.11008611 -0.18668875 0.16445866 -0.21636847 0.03324522 -0.14764634 0.047012493 0.07851505
-0.19138764 0.16726826 -0.33074683 0.10634727 0.087375484 -0.16682123 0.032419737 -0.043442786
0.13184045 0.3791891 0.07749797 0.04882288 -0.14182176 0.34528154 -0.11838054 0.34084383
0.44229132 0.40073845 -0.12982425 0.1403399 0.046613105 0.01571987 -0.19161381 -0.25183147
-0.32745644 -0.6276791 -0.04938528 -0.44478434 0.08143566 0.28471446 0.27598175 0.12343999
-0.04298036 -0.11773086 -0.19447374 -0.09199981 0.17735513 -0.19676 0.062351905 0.010593876
-0.15060502 0.22776796 0.10316423 0.23104365 0.37434554 0.15160802 0.15288222 -0.10779847
0.020713944 0.009204104 0.20987055 0.34890342 -0.19156377 0.0048612086 0.3424758 -0.28091672
0.08030315 0.104247704 0.102962576 -0.4043126 -0.07542604 -0.064892076 0.08680461 -0.055578973
0.16063999 -0.13058662 0.12465984 0.2738619 -0.1832795 0.2876544 -0.0632481 -0.35056496
-0.25647086 -0.17047463 -0.42157063 -0.1321122 -0.122640245 0.15979435 0.14550914 0.14300777
-0.00676672 0.4907491 -0.35398364 0.38820842 0.20203015 -0.39745227 -0.10517188 -0.3392692
-0.029360311 -0.08400587 0.2792995 -0.23182973 0.26579213 0.30744743 0.060148753 0.042482566
-0.03608816 -0.050674282 -0.08002641 0.0036319788 0.046209205 0.28947857 -0.51404494 -0.092276484
0.044644855 -0.13437253 0.15404966 0.254956 -0.058153007 -0.13763735 -0.07034992 -0.34038803
-0.03381623 0.029525846 0.009623275 0.08511857 -0.026298145 -0.107018694 0.11436554 0.19200368
-0.13135299 0.34787285 -0.25495026 0.5543725 -0.08413332 -0.10498485 -0.0908303 0.07778151
-0.27641174 -0.43296048 0.15352462 0.0152360005 3.7405873e-05 0.047594193 0.2528147 0.40517128
-0.0667248 0.44048157 -0.5253597 0.11623496 0.2459249 0.35083026 -0.08431837 0.1518462
0.07554621 -0.315629 -0.12942547 0.22719209 -0.059989393 -0.16157667 0.27525175 0.24488625
-0.048010577 0.15480182 -0.050803736 -0.073225506 -0.14868832 -0.005171592 0.28982878 -0.15229367
0.14254867 -0.078028016 -0.011098407 -0.12718914 0.086478 -0.053580716 0.0960293 -0.17549077
0.19889946 -0.1848529 -0.0035870755 -0.5606441 -0.26847342 0.002777353 -0.22876488 -0.008066379
0.029336648 0.033633906 -0.13295202 0.23814423 0.023126142 -0.01446424 -0.17848353 0.20329931
-0.1609082 0.1206706 0.06803356 0.13573399 0.28273538 -0.4452075 -0.032757584 0.006902604
0.1900655 0.14175516 0.00956579 0.13470006 0.21379715 0.2766131 -0.11430813 0.106527284
0.08098484 0.0806355 -0.018800493 -0.012707414 -0.10613878 0.12207234 0.13326165 -0.1597916
-0.025048006 0.29536155 -0.0681635 -0.10459582 0.027654048 -0.07338938 0.36809406 -0.16329968
0.21925469 -0.052004043 -0.11405491 0.27293634 0.09158173 0.101696424 -0.1504126 0.21030568
0.40334505 0.25126398 0.22528838 -0.10397448 0.13346267 0.10168202 0.032955028 -0.055671114
-0.04683226 0.07166511 -0.42084426 0.12901993 -0.09264665 0.2190066 -0.13640076 0.28078327
00000000: 811d 263e bcd9 073e e1fe 373e 76dc 09be
00000010: 0c09 88be c1d5 26be 09e2 65bd 1dc7 e73d
00000020: d474 e13d 562b 3fbe da67 283e b28f 5dbe
00000030: 242c 083d 9a30 17be 2c90 403d 80cc a03d
00000040: 1ffb 43be 5f48 2b3e a657 a9be 99cc d93d
00000050: ebf1 b23d 2fd3 2abe 8fca 043d 10f1 31bd
00000060: 2f01 073e 1325 c23e 41b7 9e3d 80fa 473d
00000070: b939 11be bec8 b03e 7f71 f2bd 1583 ae3e
00000080: 0274 e23e 972d cd3e a6f0 04be 43b5 0f3e
00000090: 62ed 3e3d f5c6 803c 6936 44be 0ef0 80be
000000a0: 5fa8 a7be 94af 20bf 3848 4abd c6ba e3be
000000b0: bdc7 a63d 18c6 913e 7b4d 8d3e 1bce fc3d
000000c0: 2d0c 30bd e11c f1bd 2024 47be 656a bcbd
000000d0: 959c 353e 747b 49be b664 7f3d f091 2d3c
000000e0: 3438 1abe 013c 693e c547 d33d b596 6c3e
000000f0: 38aa bf3e 223f 1b3e 288d 1c3e 72c5 dcbd
00000100: 4ab0 a93c cfcc 163c 4ee8 563e 78a3 b23e
00000110: 4b29 44be c64a 9f3b fd58 af3e 51d4 8fbe
00000120: fa75 a43d d27f d53d 0bde d23d 1002 cfbe
00000130: f878 9abd 23e6 84bd 9ec6 b13d c7a6 63bd
00000140: cf7e 243e 80b8 05be a84d ff3d a137 8c3e
00000150: 9fad 3bbe 7047 933e 3888 81bd 407d b3be
00000160: 2650 83be e790 2ebe 1bd8 d7be 6c48 07be
00000170: cf2a fbbd 21a1 233e 5900 153e a170 123e
00000180: 5dbb ddbb 7743 fb3e 583d b5be 41c3 c63e
00000190: fee0 4e3e dd7e cbbe 5b64 d7bd b1b4 adbe
000001a0: 0985 f0bc 450b acbd 5800 8f3e c664 6dbe
000001b0: e815 883e c069 9d3e 8a5e 763d 3302 2e3d
000001c0: 2ed1 13bd d68f 4fbd e3e4 a3bd 7e06 6e3b
000001d0: dd45 3d3d 8936 943e 7398 03bf 74fb bcbd
000001e0: 86dd 363d f498 09be 32bf 1d3e 9889 823e
000001f0: d931 6ebd cef0 0cbe 9e13 90bd 5747 aebe
00000200: e382 0abd 30e0 f13c f1aa 1d3c a552 ae3d
00000210: 356f d7bc 9e2c dbbd 7b38 ea3d 9d9c 443e
00000220: 6681 06be 641c b23e d788 82be 5beb 0d3f
00000230: 174e acbd 4c02 d7bd 3c05 babd ea4b 9f3d
00000240: d785 8dbe ffac ddbe 8f35 1d3e 6ba0 793c
00000250: 40e4 1c38 21f2 423d ee70 813e 9c72 cf3e
00000260: 03a7 88bd cd86 e13e f97d 06bf 980c ee3d
00000270: bdd3 7b3e 06a0 b33e 1caf acbd 927d 1b3e
00000280: f9b7 9a3d 209a a1be 1c88 04be 0ba5 683e
00000290: 70b7 75bd 5b74 25be cced 8c3e 76c3 7a3e
000002a0: bda6 44bd 5e84 1e3e 9417 50bd 41f7 95bd
000002b0: c041 18be 7576 a9bb 7064 943e dff2 1bbe
000002c0: 47f8 113e 27cd 9fbd 18d6 35bc df3d 02be
000002d0: 611b b13d 7477 5bbd 02ab c43d dab3 33be
000002e0: 4dac 4b3e 144a 3dbe 2415 6bbb 5f86 0fbf
000002f0: 5975 89be 4004 363b 5741 6abe d928 04bc
00000300: 6953 f03c b5c3 093d 9324 08be 15dc 733e
00000310: 0973 bd3c 6bfb 6cbc 63c4 36be b22d 503e
00000320: 1fc5 24be 2622 f73d 2e55 8b3d dafd 0a3e
00000330: b1c2 903e 3df2 e3be d12c 06bd 3d2f e23b
00000340: 88a0 423e 4428 113e d5b9 1c3c d0ee 093e
00000350: a4ed 5a3e 3ba0 8d3e 621a eabd fa2a da3d
00000360: 61db a53d 3a24 a53d 7e03 9abc c232 50bc
00000370: 4a5f d9bd 1001 fa3d be75 083e 69a0 23be
00000380: 7a31 cdbc a139 973e 4e99 8bbd 5536 d6bd
00000390: be8a e23c 2c4d 96bd d376 bc3e 0838 27be
000003a0: 4d84 603e 3102 55bd 9f95 e9bd 50be 8b3e
000003b0: 348f bb3d 3746 d03d c305 1abe 5f5a 573e
000003c0: 3e83 ce3e aca5 803e ffb1 663e 92f0 d4bd
000003d0: 70aa 083e aa3e d03d dafb 063d 6507 64bd
000003e0: 2fd3 3fbd 28c5 923d e678 d7be cd1d 043e
000003f0: 87bd bdbd 4443 603e a4ac 0bbe d3c2 8f3e

bias f4 [30]
-0.057217926 0.076648004 0.0005500064 0.0554495 0.059405185 -0.13997129 -0.06968673 -0.107734635
-0.14933738 0.03122113 0.04886099 -0.005693813 0.11696575 0.10319028 -0.21712102 -0.034721907
0.14750172 0.051368147 -0.06930366 0.05336142 -0.079713374 -0.03740625 0.058561582 -0.0892862
-0.06699297 -0.14551307 0.13255744 -0.01429944 0.1135574 0.17615384
00000000: 585d 6abd a1f9 9c3d 4e2e 103a 041f 633d
00000010: da52 733d a254 0fbe ebb7 8ebd faa3 dcbd
00000020: e6eb 18be 75c3 ff3c 7622 483d 2a93 babb
00000030: bd8b ef3d 6d55 d33d f954 5ebe 8f38 0ebd
00000040: b10a 173e 6867 523d 14ef 8dbd 8191 5a3d
00000050: c440 a3bd 4c37 19bd 45de 6f3d afdb b6bd
00000060: 9c33 89bd 6101 15be 23bd 073e 3348 6abc
00000070: c890 e83d ac61 343e

weight f4 [10, 30]
-0.17509538 0.33309567 0.5681497 -0.2934341 0.20182574 0.36431864 0.20368195 -0.294492
0.022238523 -0.17897569 0.6438359 -0.17293917 -0.2706658 0.4691684 -0.07024446 -0.36332488
-0.41751996 -0.4447552 0.5549051 0.35521665 -0.10548787 -0.09388856 0.35815346 -0.059062265
0.5157907 -0.18908782 -0.061658714 0.12151085 0.53296876 0.42946452 0.11738268 -0.12322919
-0.16687495 -0.14470962 -0.025080875 0.16044088 0.086293586 -0.018985653 -0.1610783 -0.18005851
-0.08231399 -0.105913535 -0.12680212 0.0443815 -0.13958205 -0.15362607 -0.038816735 -0.15073863
0.008071094 -0.17585939 0.10696056 0.096957125 0.08706735 0.14543888 -0.038912963 0.05374988
0.16943671 -0.16437078 -0.084752716 -0.027931731 0.28887174 -0.5687087 0.15460907 -0.13076887
0.025998546 -0.28482056 -0.31150645 0.30456004 -0.07014798 0.50544333 -0.12641291 -0.2474203
-0.13920313 -0.20733415 0.21972467 0.10464491 0.8532801 -0.07579301 -0.26569742 0.552225
-0.17438306 -0.10564865 0.05146314 -0.07713596 0.36097413 -0.10545641 0.20568705 0.27874267
-0.50803185 0.18572593 0.13060078 0.40983275 0.48892996 -0.55070174 -0.32319188 0.23211308
-0.29193407 0.38605672 -0.015966518 -0.103445075 -0.31920335 -0.42573938 0.6930634 0.50251263
-0.072437935 0.110152915 0.1445584 -0.04685522 0.49539143 0.3773694 0.12029912 0.11976176
-0.3170521 0.2979751 0.43404952 0.19143587 -0.037538067 0.51530045 0.12799028 -0.37151203
0.5039487 0.14306961 0.21236134 -0.6985005 0.19615553 0.4045859 0.4750213 0.14534765
-0.80836785 -0.24018584 0.25796252 0.43565747 -0.44918638 -0.07651319 -0.19156429 0.11674405
0.08493232 0.5165214 -0.34833914 0.027980657 -0.16294879 0.2522524 0.46332452 -0.20954189
0.41969353 0.34885475 -0.2025199 -0.04832484 -0.14055668 -0.3714182 -0.26611245 -0.25521556
0.0797605 0.016762672 -0.2048183 -0.07795795 0.31012997 -0.40254065 0.118418664 0.20252723
-0.30168402 0.6131925 0.2882002 0.35313717 -0.37439278 -0.12360812 -0.40075964 0.009364818
0.43131858 0.19429114 0.07124216 0.43682712 -0.29756677 -0.014748196 0.023680648 -0.079360224
0.1945272 0.16469498 0.48966327 -0.072697364 0.15402097 -0.2831081 0.26188508 -0.26073265
-0.24239008 0.53159 -0.057775248 0.1960096 -0.28960747 0.1581501 -0.6510518 0.28819597
0.12577093 -0.5459046 0.048019495 0.048057206 0.64955485 0.4983314 -0.33697444 0.3526281
-0.06928397 -0.17061622 -0.18160449 0.13601646 0.020296115 -0.17315356 -0.36245877 0.4874858
0.23622717 0.15739147 0.2517349 -0.28540948 -0.0026371805 -0.11857942 0.53743404 -0.13315155
0.2688713 0.08591846 0.3221364 -0.13286942 -0.108185835 -0.01154632 0.3490354 -0.20526512
0.15533462 0.4204119 0.11094866 0.5746309 0.04671872 -0.43491134 0.14399378 -0.19485706
0.005944657 -0.0058558206 -0.7080742 0.32297686 -0.093836114 -0.043744635 -0.22024505 -0.08337133
0.0051694126 -0.19288057 -0.08390444 -0.016414354 0.39414683 0.3735939 0.2592631 0.15443237
-0.43367854 0.13735498 0.52819985 -0.24595888 -0.27809447 -0.17700833 0.8304165 0.6634229
00000000: 344c 33be 848b aa3e 4272 113f ff3c 96be
00000010: 68ab 4e3e f987 ba3e 0092 503e a8c7 96be
00000020: 902d b63c 6745 37be 6ed2 243f f716 31be
00000030: b594 8abe d736 f03e 54dc 8fbd b805 babe
00000040: 2dc5 d5be f4b6 e3be 430e 0e3f f5de b53e
00000050: 060a d8bd a548 c0bd e45f b73e 46eb 71bd
00000060: dc0a 043f 3da0 41be d98d 7cbd aeda f83d
00000070: a470 083f c6e2 db3e 5566 f03d 965f fcbd
00000080: 44e1 2abe c22e 14be 6876 cdbc 9d4a 243e
00000090: b1ba b03d cd87 9bbc b6f1 24be 4261 38be
000000a0: 3d94 a8bd 32e9 d8bd 6ad8 01be 60c9 353d
000000b0: 99ee 0ebe 2750 1dbe 4cfe 1ebd 3a5b 1abe
000000c0: 9f3c 043c 7c14 34be 230e db3d 7591 c63d
000000d0: 5e50 b23d eeed 143e 3363 1fbd d628 5c3d
000000e0: d180 2d3e d050 28be d592 adbd 16d1 e4bc
000000f0: ffe6 933e e596 11bf d751 1e3e 46e8 05be
00000100: e7fa d43c 00d4 91be c67d 9fbe 4bef 9b3e
00000110: bea9 8fbd bc64 013f 6372 01be bf5b 7dbe
00000120: 448b 0ebe 674f 54be 81ff 603e 1250 d63d
00000130: 9170 5a3f 5e39 9bbd 7e09 88be 9e5e 0d3f
00000140: 7991 32be 525e d8bd 03cb 523d 75f9 9dbd
00000150: 9ad1 b83e 88f9 d7bd a09f 523e 5cb7 8e3e
00000160: 600e 02bf f02e 3e3e 36bc 053e 99d5 d13e
00000170: 0755 fa3e cafa 0cbf 6879 a5be 0daf 6d3e
00000180: 6278 95be 3aa9 c53e 37cc 82bc 03db d3bd
00000190: 9f6e a3be 83fa d9be 9a6c 313f aba4 003f
000001a0: 575a 94bd da97 e13d 1e07 143e 42eb 3fbd
000001b0: f2a3 fd3e 9036 c13e 635f f63d a745 f53d
000001c0: a754 a2be 3190 983e bd3b de3e c407 443e
000001d0: 84c1 19bd bbea 033f e20f 033e d336 bebe
000001e0: c802 013f d780 123e 4075 593e eed0 32bf
000001f0: ffdc 483e e225 cf3e fe35 f33e 04d6 143e
00000200: 32f1 4ebf 47f3 75be aa13 843e 7f0e df3e
00000210: c2fb e5be f3b2 9cbd 6e29 44be 8117 ef3d
00000220: fff0 ad3d bf3a 043f 8259 b2be b137 e53c
00000230: 0cdc 26be 3a27 813e df38 ed3e 2692 56be
00000240: 12e2 d63e 179d b23e 6061 4fbe 44f0 45bd
00000250: 17ee 0fbe 872a bebe e43f 88be 9dab 82be
00000260: 7959 a33d df51 893c e3bb 51be 6ba8 9fbd
00000270: 5bc9 9e3e cf19 cebe 7c85 f23d 4c63 4f3e
00000280: 5476 9abe 2ffa 1c3f fa8e 933e 65ce b43e
00000290: 69b0 bfbe 4126 fdbd 5e30 cdbe e56e 193c
000002a0: cad5 dc3e 42f4 463e 69e7 913d cea7 df3e
000002b0: ac5a 98be 6ba2 71bc ebfd c13c 9d87 a2bd
000002c0: 2332 473e cda5 283e 25b5 fa3e 5be2 94bd
000002d0: acb7 1d3e 8bf3 90be cd15 863e c07e 85be
000002e0: 1b35 78be 4816 083f bda5 6cbd beb6 483e
000002f0: 6e47 94be 1af2 213e 55ab 26bf 6c8e 933e
00000300: 18ca 003e 67c0 0bbf 17b0 443d a2d7 443d
00000310: 3a49 263f 4b25 ff3e ea87 acbe ac8b b43e
00000320: c1e4 8dbd 05b6 2ebe 87f6 39be e647 0b3e
00000330: 0a44 a63c 2b4f 31be 3294 b9be bd97 f93e
00000340: 89e5 713e 3b2b 213e 66e3 803e 3121 92be
00000350: 8cd4 2cbb c4d9 f2bd 4795 093f e158 08be
00000360: 80a9 893e 04f6 af3d 10ef a43e ec0e 08be
00000370: 8990 ddbd c72c 3dbc c5b4 b23e 0531 52be
00000380: 0a10 1f3e 3b40 d73e 0d39 e33d 031b 133f
00000390: 215c 3f3d b3ac debe 1b73 133e 9c88 47be
000003a0: 66cb c23b 2fe2 bfbb 5a44 35bf 395d a53e
000003b0: 262d c0bd 932d 33bd eb87 61be 96be aabd
000003c0: 2d64 a93b 7c82 45be 17d6 abbd 6577 86bc
000003d0: 9dcd c93e b347 bf3e 22be 843e 8523 1e3e
000003e0: 1d0b debe c9a6 0c3e 1b38 073f a5dc 7bbe
000003f0: 6662 8ebe ac41 35be 2d96 543f 15d6 293f

bias f4 [10]
0.15665808 -0.10180773 0.29426745 0.015329304 0.10313735 0.004534839 -0.0990553 0.031260584
-0.24015023 0.16232213
00000000: fa6a 203e 9280 d0bd 39aa 963e c327 7b3c
00000010: ad39 d33d fd98 943b 81dd cabd 190b 003d
00000020: f1e9 75be c637 263e

weight f4 [10, 10]
-0.28164545 -0.29862624 -0.82902694 -0.46798396 0.17424564 -0.074037164 0.45764658 0.95472926
-0.452724 -0.032761656 0.72181123 -0.024218507 1.0743736 0.5079401 -0.7901353 0.29206595
-0.9779718 0.064817615 0.25768274 -0.2784085 -0.049804185 0.033943865 0.08700528 -0.7975578
-0.3011621 -0.013721062 0.24264228 0.2582988 1.0932735 -0.03425238 -0.17796108 0.025479645
0.6692973 0.5262471 -0.14933547 -0.2035947 0.7366752 -0.13897866 -0.11255414 -0.9089734
1.3625814 0.307774 -0.25289243 -0.54862285 -0.16798049 0.25054145 -0.0010383485 0.14252792
-0.06324119 0.13735558 -0.3789983 0.0303563 -0.11057263 0.81747776 -0.6706507 0.24829304
0.82581574 -0.7162722 -0.6004288 0.32358238 -0.4489816 0.18138342 -0.2899029 -0.25034857
-0.4694757 -0.25234884 -0.89682466 0.120251246 -0.22412461 1.193324 0.028776158 0.3099807
0.03546504 0.32361296 0.2756485 1.1152225 -0.22717641 -0.3326472 1.1615574 -0.82086563
-0.5625011 0.24773009 0.6974415 -0.20614183 0.7848841 0.0972913 -0.049718045 -0.6561644
-0.43806303 0.11000762 0.37943444 -0.07609438 -0.573751 0.7194641 1.0664937 -0.64004034
-0.13429983 0.042194366 -0.10439791 -0.36994824
00000000: d533 90be 8ae5 98be 1c3b 54bf 989b efbe
00000010: 736d 323e cca0 97bd a750 ea3e 2369 743f
00000020: 71cb e7be 1631 06bd 9fc8 383f e465 c6bc
00000030: 1385 893f 5d08 023f 4f46 4abf ab89 953e
00000040: 5c5c 7abf 19bf 843d feee 833e 8f8b 8ebe
00000050: 79ff 4bbd b908 0b3d d32f b23d bf2c 4cbf
00000060: eb31 9abe 4ece 60bc 3877 783e be3f 843e
00000070: 63f0 8b3f 394c 0cbd 6e3b 36be b0ba d03c
00000080: 1157 2b3f 21b8 063f 66eb 18be 217b 50be
00000090: bf96 3c3f 6c50 0ebe c982 e6bd 7bb2 68bf
000000a0: 1169 ae3f 8e94 9d3e 1e7b 81be 8c72 0cbf
000000b0: 1403 2cbe f846 803e 3219 88ba d7f2 113e
000000c0: 9984 81bd f1a6 0c3e 110c c2be c6ad f83c
000000d0: e773 e2bd 3946 513f c4af 2bbf 8840 7e3e
000000e0: a968 533f 9d5d 37bf b4b5 19bf 97ac a53e
000000f0: ebe0 e5be 93bc 393e 276e 94be b02d 80be
00000100: 1e5f f0be de33 81be 4d96 65bf 4946 f63d
00000110: ec80 65be d7be 983f fabb eb3c cab5 9e3e
00000120: ca43 113d 99b0 a53e cd21 8d3e 9cbf 8e3f
00000130: efa0 68be bc50 aabe eaad 943f 4024 52bf
00000140: 1200 10bf f5ac 7d3e 878b 323f d816 53be
00000150: 2aee 483f a940 c73d 26a5 4bbd 64fa 27bf
00000160: cc49 e0be ad4b e13d 3b45 c23e 5fd7 9bbd
00000170: 58e1 12bf cd2e 383f de82 883f afd9 23bf
00000180: e585 09be 00d4 2c3d 92ce d5bd db69 bdbe

bias f4 [10]
0.10522146 -0.29295602 0.1940494 -0.24632609 0.5780081 -0.18505086 0.3644813 -0.56935674
0.07267785 -0.41372254
00000000: 597e d73d 55fe 95be e3b4 463e e83c 7cbe
00000010: 57f8 133f f97d 3dbe 4b9d ba3e 5dc1 11bf
00000020: 20d8 943d 71d3 d3be
